tflite_micro_model.tflite (tflite, 10608 bytes, 4 tensors)

sequential_1/batch_normalization_5/batchnorm/mul_1;StatefulPartitionedCall/StatefulPartitionedCall/sequential_1/batch_normalization_5/batchnorm/mul_1;sequential_1/batch_normalization_5/batchnorm/add_1;StatefulPartitionedCall/StatefulPartitionedCall/sequential_1/batch_normalization_5/batchnorm/add_1;sequential_1/dense_7/MatMul;StatefulPartitionedCall/StatefulPartitionedCall/sequential_1/dense_7/MatMul;sequential_1/dense_7/BiasAdd;StatefulPartitionedCall/StatefulPartitionedCall/sequential_1/dense_7/BiasAdd i1 [3, 16] scale=0.0068166787 zero_point=0
000000 d0 19 d2 74 e7 ff b0 aa 3a e7 3d 4d a6 11 c6 fd
       -0.3272006 0.17041697 -0.31356722 0.7907347 -0.17041697 -0.0068166787 -0.5453343 -0.5862344 0.39536735 -0.17041697 0.4158174 0.5248843 -0.6135011 0.11588354 -0.39536735 -0.020450037
000010 34 e0 34 42 f6 3b 0b 81 d7 2a 17 16 04 c8 12 45
       0.3544673 -0.21813372 0.3544673 0.4499008 -0.068166785 0.40218404 0.07498346 -0.8657182 -0.27948382 0.2863005 0.15678361 0.14996693 0.027266715 -0.381734 0.122700214 0.47035083
000020 b5 dc 39 22 a3 bc 1e a2 1c e3 77 fe ff 28 fe f5
       -0.5112509 -0.24540043 0.3885507 0.23176707 -0.6339511 -0.46353415 0.20450036 -0.6407678 0.190867 -0.19768368 0.81118476 -0.013633357 -0.0068166787 0.27266714 -0.013633357 -0.07498346

sequential_1/batch_normalization_4/batchnorm/mul_1;StatefulPartitionedCall/StatefulPartitionedCall/sequential_1/batch_normalization_4/batchnorm/mul_1;sequential_1/batch_normalization_4/batchnorm/add_1;StatefulPartitionedCall/StatefulPartitionedCall/sequential_1/batch_normalization_4/batchnorm/add_1;sequential_1/dense_6/MatMul;StatefulPartitionedCall/StatefulPartitionedCall/sequential_1/dense_6/MatMul;sequential_1/dense_6/Relu;StatefulPartitionedCall/StatefulPartitionedCall/sequential_1/dense_6/Relu;sequential_1/dense_6/BiasAdd;StatefulPartitionedCall/StatefulPartitionedCall/sequential_1/dense_6/BiasAdd i1 [16, 32] scale=0.00613024 zero_point=0
000000 f8 2f 14 d1 0a ea f2 00 c0 c9 f1 f2 08 d1 19 cc
       -0.04904192 0.28812128 0.1226048 -0.28812128 0.0613024 -0.13486528 -0.08582336 0.0 -0.39233536 -0.3371632 -0.0919536 -0.08582336 0.04904192 -0.28812128 0.153256 -0.31877246
000010 cc e1 ca e3 be 1f 0b db 0b 1d 0f 33 01 cd 38 b0
       -0.31877246 -0.19003744 -0.33103296 -0.17777696 -0.40459582 0.19003744 0.06743264 -0.22681887 0.06743264 0.17777696 0.0919536 0.31264225 0.00613024 -0.31264225 0.34329343 -0.4904192
000020 30 d8 d1 f5 c8 b9 be 18 e4 dc 09 e9 c1 02 ff 08
       0.2942515 -0.2452096 -0.28812128 -0.06743264 -0.34329343 -0.43524703 -0.40459582 0.14712575 -0.17164671 -0.22068864 0.05517216 -0.14099552 -0.3862051 0.01226048 -0.00613024 0.04904192
000030 fc f8 f5 fe 10 f4 ed 2e 3d 16 05 bb 14 49 63 20
       -0.02452096 -0.04904192 -0.06743264 -0.01226048 0.09808384 -0.073562875 -0.11647456 0.28199103 0.37394464 0.13486528 0.0306512 -0.42298657 0.1226048 0.4475075 0.6068938 0.19616768
000040 26 08 dc fd ed 03 3b 15 25 36 38 fa 6f 30 cf 3a
       0.23294912 0.04904192 -0.22068864 -0.018390719 -0.11647456 0.018390719 0.36168414 0.12873504 0.22681887 0.33103296 0.34329343 -0.036781438 0.68045664 0.2942515 -0.30038175 0.35555393
000050 f7 26 f4 f1 c5 15 1e c8 f8 e7 21 34 2a 2c eb 28
       -0.05517216 0.23294912 -0.073562875 -0.0919536 -0.36168414 0.12873504 0.1839072 -0.34329343 -0.04904192 -0.153256 0.20229791 0.31877246 0.25747007 0.26973057 -0.12873504 0.2452096
000060 d2 5d f4 ea 09 e4 46 36 1a f4 b7 be ab 2e 2c 0d
       -0.28199103 0.5701123 -0.073562875 -0.13486528 0.05517216 -0.17164671 0.4291168 0.33103296 0.15938623 -0.073562875 -0.4475075 -0.40459582 -0.5210704 0.28199103 0.26973057 0.079693116
000070 d1 f6 1a 11 b7 c8 cf f5 35 f8 13 f2 ab 08 49 ee
       -0.28812128 -0.0613024 0.15938623 0.10421408 -0.4475075 -0.34329343 -0.30038175 -0.06743264 0.3249027 -0.04904192 0.11647456 -0.08582336 -0.5210704 0.04904192 0.4475075 -0.11034432
000080 d6 0d 3b af cf 11 09 e9 17 04 1c e5 54 dc 57 f6
       -0.25747007 0.079693116 0.36168414 -0.49654943 -0.30038175 0.10421408 0.05517216 -0.14099552 0.14099552 0.02452096 0.17164671 -0.16551648 0.51494014 -0.22068864 0.53333086 -0.0613024
000090 0f 03 d8 17 ea f8 d1 0b 35 2d 4a 62 22 93 1f a5
       0.0919536 0.018390719 -0.2452096 0.14099552 -0.13486528 -0.04904192 -0.28812128 0.06743264 0.3249027 0.2758608 0.45363775 0.6007635 0.20842816 -0.66819614 0.19003744 -0.55785185
0000a0 08 0c 55 a1 ea f2 a5 4b f1 de 31 0a ac c9 15 18
       0.04904192 0.073562875 0.5210704 -0.5823728 -0.13486528 -0.08582336 -0.55785185 0.459768 -0.0919536 -0.20842816 0.30038175 0.0613024 -0.51494014 -0.3371632 0.12873504 0.14712575
0000b0 e3 cb 1f d0 17 c2 5e 36 43 c7 2d 1c c2 eb 3c ed
       -0.17777696 -0.3249027 0.19003744 -0.2942515 0.14099552 -0.3800749 0.57624257 0.33103296 0.41072607 -0.34942368 0.2758608 0.17164671 -0.3800749 -0.12873504 0.3678144 -0.11647456
0000c0 fe cf e5 17 29 33 c5 41 f3 cc cb 6f 0e cd 52 e0
       -0.01226048 -0.30038175 -0.16551648 0.14099552 0.25133982 0.31264225 -0.36168414 0.3984656 -0.079693116 -0.31877246 -0.3249027 0.68045664 0.08582336 -0.31264225 0.50267965 -0.19616768
0000d0 e6 0c b6 02 e0 10 1f 0b d8 c1 5f f5 d1 0b ad 64
       -0.15938623 0.073562875 -0.45363775 0.01226048 -0.19616768 0.09808384 0.19003744 0.06743264 -0.2452096 -0.3862051 0.5823728 -0.06743264 -0.28812128 0.06743264 -0.5088099 0.613024
0000e0 ce ec 1e 04 e2 f5 06 e0 fd f4 fa 02 c5 f1 01 27
       -0.306512 -0.1226048 0.1839072 0.02452096 -0.1839072 -0.06743264 0.036781438 -0.19616768 -0.018390719 -0.073562875 -0.036781438 0.01226048 -0.36168414 -0.0919536 0.00613024 0.23907936
0000f0 04 fd 0b f3 cd 0c 44 de e8 f2 f1 f3 0f ca d4 e7
       0.02452096 -0.018390719 0.06743264 -0.079693116 -0.31264225 0.073562875 0.41685632 -0.20842816 -0.14712575 -0.08582336 -0.0919536 -0.079693116 0.0919536 -0.33103296 -0.26973057 -0.153256

sequential_1/batch_normalization_3/batchnorm/mul_1;StatefulPartitionedCall/StatefulPartitionedCall/sequential_1/batch_normalization_3/batchnorm/mul_1;sequential_1/batch_normalization_3/batchnorm/add_1;StatefulPartitionedCall/StatefulPartitionedCall/sequential_1/batch_normalization_3/batchnorm/add_1;sequential_1/dense_5/MatMul;StatefulPartitionedCall/StatefulPartitionedCall/sequential_1/dense_5/MatMul;sequential_1/dense_5/Relu;StatefulPartitionedCall/StatefulPartitionedCall/sequential_1/dense_5/Relu;sequential_1/dense_5/BiasAdd;StatefulPartitionedCall/StatefulPartitionedCall/sequential_1/dense_5/BiasAdd i1 [32, 64] scale=0.009758453 zero_point=0
000000 02 1a 1c 17 22 eb d0 f6 ec d2 fb e9 e9 ca 16 1e
       0.019516906 0.25371978 0.2732367 0.22444442 0.3317874 -0.2049275 -0.46840572 -0.09758453 -0.19516906 -0.44888884 -0.048792265 -0.22444442 -0.22444442 -0.52695644 0.21468596 0.29275358
000010 f9 f3 1c 0f e9 32 02 0e 20 f2 0c 10 f0 f8 17 e6
       -0.06830917 -0.12685989 0.2732367 0.14637679 -0.22444442 0.48792264 0.019516906 0.13661835 0.3122705 -0.13661835 0.11710143 0.15613525 -0.15613525 -0.07806762 0.22444442 -0.25371978
000020 08 ed f2 08 00 19 38 19 0d 1e d9 e6 fe e3 e7 13
       0.07806762 -0.1854106 -0.13661835 0.07806762 0.0 0.24396132 0.5464734 0.24396132 0.12685989 0.29275358 -0.38057965 -0.25371978 -0.019516906 -0.28299513 -0.24396132 0.1854106
000030 11 f7 e7 1a ee 0a 0c 38 2e 24 f8 f7 27 34 1a 10
       0.1658937 -0.08782607 -0.24396132 0.25371978 -0.17565215 0.09758453 0.11710143 0.5464734 0.44888884 0.3513043 -0.07806762 -0.08782607 0.38057965 0.50743955 0.25371978 0.15613525
000040 0d da 1c f0 09 01 20 01 ed 23 e9 f5 f7 cd ed 03
       0.12685989 -0.3708212 0.2732367 -0.15613525 0.08782607 0.009758453 0.3122705 0.009758453 -0.1854106 0.34154585 -0.22444442 -0.10734298 -0.08782607 -0.4976811 -0.1854106 0.029275358
000050 07 eb 0a fb f6 da e1 fe 2e 06 ef 2e fb f6 06 fe
       0.06830917 -0.2049275 0.09758453 -0.048792265 -0.09758453 -0.3708212 -0.30251205 -0.019516906 0.44888884 0.058550715 -0.1658937 0.44888884 -0.048792265 -0.09758453 0.058550715 -0.019516906
000060 ed f2 15 04 11 f7 0a f1 cf fa 01 ee 4b 1e 34 e8
       -0.1854106 -0.13661835 0.2049275 0.03903381 0.1658937 -0.08782607 0.09758453 -0.14637679 -0.4781642 -0.058550715 0.009758453 -0.17565215 0.73188394 0.29275358 0.50743955 -0.23420286
000070 0e 20 f7 eb f4 fb ec fb 2f 07 13 ec ea 2a 19 db
       0.13661835 0.3122705 -0.08782607 -0.2049275 -0.11710143 -0.048792265 -0.19516906 -0.048792265 0.45864728 0.06830917 0.1854106 -0.19516906 -0.21468596 0.409855 0.24396132 -0.36106277
000080 ef e2 00 03 1a fc e8 fb 17 e2 14 11 f3 b6 ee ea
       -0.1658937 -0.29275358 0.0 0.029275358 0.25371978 -0.03903381 -0.23420286 -0.048792265 0.22444442 -0.29275358 0.19516906 0.1658937 -0.12685989 -0.72212553 -0.17565215 -0.21468596
000090 02 ff 0a 18 0d 30 f0 f6 48 38 1a e0 0f 27 13 e7
       0.019516906 -0.009758453 0.09758453 0.23420286 0.12685989 0.46840572 -0.15613525 -0.09758453 0.7026086 0.5464734 0.25371978 -0.3122705 0.14637679 0.38057965 0.1854106 -0.24396132
0000a0 32 1f f3 14 f7 19 de 19 03 fa fc ec f9 fe 1f 01
       0.48792264 0.30251205 -0.12685989 0.19516906 -0.08782607 0.24396132 -0.3317874 0.24396132 0.029275358 -0.058550715 -0.03903381 -0.19516906 -0.06830917 -0.019516906 0.30251205 0.009758453
0000b0 1b ef 08 ed df 04 09 19 e1 1a 18 ee fc 08 c6 eb
       0.26347822 -0.1658937 0.07806762 -0.1854106 -0.32202893 0.03903381 0.08782607 0.24396132 -0.30251205 0.25371978 0.23420286 -0.17565215 -0.03903381 0.07806762 -0.56599027 -0.2049275
0000c0 e5 f1 f9 03 ef 0b 15 13 00 ed f0 06 e0 07 ee e5
       -0.26347822 -0.14637679 -0.06830917 0.029275358 -0.1658937 0.10734298 0.2049275 0.1854106 0.0 -0.1854106 -0.15613525 0.058550715 -0.3122705 0.06830917 -0.17565215 -0.26347822
0000d0 20 15 fa f4 09 dd 20 fb 0a ed 03 d6 e8 e5 f6 08
       0.3122705 0.2049275 -0.058550715 -0.11710143 0.08782607 -0.34154585 0.3122705 -0.048792265 0.09758453 -0.1854106 0.029275358 -0.409855 -0.23420286 -0.26347822 -0.09758453 0.07806762
0000e0 fc fe ec fe f7 15 2d fd e3 db 03 e8 d4 f9 fd e2
       -0.03903381 -0.019516906 -0.19516906 -0.019516906 -0.08782607 0.2049275 0.43913037 -0.029275358 -0.28299513 -0.36106277 0.029275358 -0.23420286 -0.42937192 -0.06830917 -0.029275358 -0.29275358
0000f0 e4 ff 03 03 ef 05 ef ea fc 2f 1c 0d 1d b5 e4 06
       -0.2732367 -0.009758453 0.029275358 0.029275358 -0.1658937 0.048792265 -0.1658937 -0.21468596 -0.03903381 0.45864728 0.2732367 0.12685989 0.28299513 -0.73188394 -0.2732367 0.058550715

sequential_1/dense_4/MatMul;StatefulPartitionedCall/StatefulPartitionedCall/sequential_1/dense_4/MatMul i1 [64, 8] scale=0.005617076 zero_point=0
000000 a6 24 12 eb f0 3b dc e3 49 17 bc fa 45 f7 06 ed
       -0.50553685 0.20221473 0.10110737 -0.1179586 -0.08987322 0.3314075 -0.20221473 -0.1628952 0.41004655 0.12919275 -0.38196117 -0.033702455 0.38757825 -0.050553683 0.033702455 -0.10672445
000010 b7 c2 e8 06 df e4 3a f6 35 ff f1 46 da e7 02 dc
       -0.41004655 -0.3482587 -0.13480982 0.033702455 -0.18536352 -0.15727814 0.3257904 -0.05617076 0.29770502 -0.005617076 -0.08425614 0.39319533 -0.2134489 -0.1404269 0.011234152 -0.20221473
000020 4a c3 2f be 3c 09 e0 69 e8 cc 0f c0 33 f1 b9 5b
       0.41566363 -0.34264165 0.26400256 -0.37072703 0.33702457 0.050553683 -0.17974643 0.58979297 -0.13480982 -0.29208794 0.08425614 -0.35949287 0.2864709 -0.08425614 -0.3988124 0.51115394
000030 a6 19 cc 04 f7 0f 36 0e 56 ab 1f 5b 1f 43 af f1
       -0.50553685 0.1404269 -0.29208794 0.022468304 -0.050553683 0.08425614 0.3033221 0.07863907 0.48306856 -0.47745147 0.17412935 0.51115394 0.17412935 0.37634408 -0.45498317 -0.08425614
000040 5e d6 f3 d0 b9 f5 18 ae 46 3c db ec 0c e0 d3 e8
       0.5280051 -0.2359172 -0.073021986 -0.26961964 -0.3988124 -0.061787836 0.13480982 -0.46060023 0.39319533 0.33702457 -0.20783181 -0.11234152 0.06740491 -0.17974643 -0.25276843 -0.13480982
000050 ac bf db db 1e f0 f6 eb 1b df c9 44 fb d3 13 1d
       -0.4718344 -0.36510995 -0.20783181 -0.20783181 0.16851228 -0.08987322 -0.05617076 -0.1179586 0.15166105 -0.18536352 -0.3089392 0.38196117 -0.02808538 -0.25276843 0.10672445 0.1628952
000060 f9 05 eb ba f0 bf d5 36 00 f0 b9 f3 e8 60 02 cd
       -0.039319534 0.02808538 -0.1179586 -0.39319533 -0.08987322 -0.36510995 -0.24153428 0.3033221 0.0 -0.08987322 -0.3988124 -0.073021986 -0.13480982 0.5392393 0.011234152 -0.2864709
000070 c3 1d 39 31 5c f3 02 38 c4 46 32 d6 a5 eb e9 35
       -0.34264165 0.1628952 0.32017332 0.27523673 0.516771 -0.073021986 0.011234152 0.31455627 -0.33702457 0.39319533 0.2808538 -0.2359172 -0.51115394 -0.1179586 -0.12919275 0.29770502
000080 fb de 35 aa 2b ea 09 fc fb f2 02 1d 2e 26 1a 30
       -0.02808538 -0.19098058 0.29770502 -0.48306856 0.24153428 -0.12357567 0.050553683 -0.022468304 -0.02808538 -0.07863907 0.011234152 0.1628952 0.2583855 0.2134489 0.14604397 0.26961964
000090 3d ac ef 10 40 e3 53 21 b0 40 e6 0b f5 48 33 b9
       0.34264165 -0.4718344 -0.09549029 0.08987322 0.35949287 -0.1628952 0.4662173 0.18536352 -0.4493661 0.35949287 -0.14604397 0.061787836 -0.061787836 0.40442947 0.2864709 -0.3988124
0000a0 ef 45 9e 06 38 f1 cd c2 f2 3d 34 cc d7 c5 a7 f0
       -0.09549029 0.38757825 -0.55047345 0.033702455 0.31455627 -0.08425614 -0.2864709 -0.3482587 -0.07863907 0.34264165 0.29208794 -0.29208794 -0.23030011 -0.3314075 -0.49991977 -0.08987322
0000b0 f3 b3 11 41 e4 49 2b c2 e2 fa e7 01 4a e5 f6 e2
       -0.073021986 -0.43251485 0.09549029 0.36510995 -0.15727814 0.41004655 0.24153428 -0.3482587 -0.16851228 -0.033702455 -0.1404269 0.005617076 0.41566363 -0.15166105 -0.05617076 -0.16851228
0000c0 2b 09 8d 42 d4 f6 aa 57 1d bd f5 cc f3 5f c5 d9
       0.24153428 0.050553683 -0.6459637 0.37072703 -0.24715135 -0.05617076 -0.48306856 0.4886856 0.1628952 -0.37634408 -0.061787836 -0.29208794 -0.073021986 0.5336222 -0.3314075 -0.21906596
0000d0 cf ac 1e b1 f4 b8 d7 e8 02 14 fd de 12 ab d7 28
       -0.27523673 -0.4718344 0.16851228 -0.443749 -0.06740491 -0.40442947 -0.23030011 -0.13480982 0.011234152 0.11234152 -0.016851228 -0.19098058 0.10110737 -0.47745147 -0.23030011 0.22468305
0000e0 53 09 19 b4 f9 e3 bc 2a 50 c9 30 5a 2e c8 f7 18
       0.4662173 0.050553683 0.1404269 -0.4268978 -0.039319534 -0.1628952 -0.38196117 0.2359172 0.4493661 -0.3089392 0.26961964 0.50553685 0.2583855 -0.31455627 -0.050553683 0.13480982
0000f0 2d df e4 e7 b3 cb 1c e6 1f de e7 e7 2d f1 a1 37
       0.25276843 -0.18536352 -0.15727814 -0.1404269 -0.43251485 -0.29770502 0.15727814 -0.14604397 0.17412935 -0.19098058 -0.1404269 -0.1404269 0.25276843 -0.08425614 -0.5336222 0.3089392
