tflite_model.tflite (tflite, 24496 bytes, 8 tensors)

sequential_15/dense_58/MatMul;StatefulPartitionedCall/StatefulPartitionedCall/sequential_15/dense_58/MatMul;sequential_15/dense_58/Relu;StatefulPartitionedCall/StatefulPartitionedCall/sequential_15/dense_58/Relu;sequential_15/dense_58/BiasAdd;StatefulPartitionedCall/StatefulPartitionedCall/sequential_15/dense_58/BiasAdd f4 [32]
0	0xbee476af	-0.44621798
1	0xbf59eb05	-0.85124236
2	0xc0005a0c	-2.005496
3	0xbf2ebfd6	-0.6826147
4	0xbf55dee6	-0.8354324
5	0xbe162747	-0.1466342
6	0xbfc286dd	-1.5197407
7	0xbde86664	-0.113476545
8	0xbee0ff9b	-0.43945011
9	0xbe8d4141	-0.27588847
10	0xbfe30344	-1.7735372
11	0x3f4480aa	0.76758826
12	0xbfbfb1cf	-1.4976138
13	0xbe8d6f3d	-0.2762393
14	0xbe12e839	-0.14346398
15	0xbf742ad2	-0.9537784
16	0x3f84d96c	1.0378852
17	0xbf3d93f3	-0.7405388
18	0x3f9851ce	1.1899965
19	0xbf06a8e2	-0.52601445
20	0x3dc5f00d	0.09664927
21	0x3e50894c	0.20364875
22	0x3ebe1edd	0.37132922
23	0xbf98de6d	-1.1942879
24	0xbf1459a8	-0.57949305
25	0xbf6cd225	-0.92508155
26	0x3c9056b0	0.01761946
27	0xbde2d395	-0.11075512
28	0xbf0011ff	-0.5002746
29	0x3fc473b9	1.5347816
30	0xbe42f510	-0.19038796
31	0x4008d36b	2.137904

sequential_15/batch_normalization_42/batchnorm/mul_1;StatefulPartitionedCall/StatefulPartitionedCall/sequential_15/batch_normalization_42/batchnorm/mul_1;sequential_15/batch_normalization_42/batchnorm/add_1;StatefulPartitionedCall/StatefulPartitionedCall/sequential_15/batch_normalization_42/batchnorm/add_1;sequential_15/dense_58/MatMul;StatefulPartitionedCall/StatefulPartitionedCall/sequential_15/dense_58/MatMul;sequential_15/dense_58/Relu;StatefulPartitionedCall/StatefulPartitionedCall/sequential_15/dense_58/Relu;sequential_15/dense_58/BiasAdd;StatefulPartitionedCall/StatefulPartitionedCall/sequential_15/dense_58/BiasAdd f4 [32, 64]
0	0xbe6dad69	-0.23210682
1	0x3dadf857	0.08494633
2	0xbe946743	-0.28985032
3	0xbe7a5fa2	-0.24450544
4	0x3e8db550	0.27677393
5	0xbdaed65e	-0.08536981
6	0x3eace8e5	0.33771434
7	0x3f64143c	0.89093375
8	0x3d69cc80	0.057079792
9	0x3c94a366	0.01814432
10	0xbd5ef17d	-0.05442952
11	0xbf2fa4d8	-0.68610907
12	0xbd9dff0e	-0.077146634
13	0x3d274044	0.040832773
14	0xbe859e53	-0.26097354
15	0xbea544c1	-0.32279018
16	0x3e230486	0.15919694
17	0x3dbb870c	0.091566175
18	0xbd80029f	-0.062505
19	0x3ecafc84	0.3964578
20	0x3eb1762e	0.34660476
21	0xbd33f6f6	-0.043936692
22	0x3edd8cb1	0.43271402
23	0x3e1eadd6	0.15496
24	0xbf11a4ea	-0.56892264
25	0xbe80ca2a	-0.2515424
26	0x3e4cff0f	0.20019172
27	0x3ecb648b	0.39725146
28	0xbf01b0bb	-0.50660294
29	0x3e7decac	0.24797314
30	0xbd6ae49a	-0.057346918
31	0xbdc1dc94	-0.094659
32	0x3e04c0e9	0.12964214
33	0x3e09cbe5	0.13456686
34	0x3ca0c140	0.019623399
35	0xbe6b61bb	-0.229865
36	0xbdfa3d80	-0.122187614
37	0xbe61c13a	-0.22046366
38	0x3f1dfd6b	0.6171481
39	0xbe2f79ba	-0.17136279
40	0x3d3f438b	0.046695273
41	0x3ec0b7ab	0.37640128
42	0xbd682192	-0.05667264
43	0xbea17f12	-0.3154226
44	0x3eb073c7	0.3446333
45	0xbdb71c13	-0.089409016
46	0x3ed0d6e0	0.40788937
47	0x3e018409	0.12648024
48	0x3d9b3bb9	0.075797506
49	0x3d8aa82a	0.06770356
50	0xbdc5a060	-0.0964973
51	0xbecdbd30	-0.401834
52	0xbc14795f	-0.00906214
53	0xbd82652f	-0.063669555
54	0x3d0d8da8	0.034558922
55	0xbdb55081	-0.088532455
56	0xbe9fdcd8	-0.31223178
57	0x3e44ac02	0.19206241
58	0x3dc72c21	0.09725214
59	0x3d5c23aa	0.05374495
60	0x3d8e224d	0.06940136
61	0x3e38bf23	0.18041663
62	0x3e1a7681	0.15084268
63	0x3dcd2f49	0.100187846
64	0xbe0281b4	-0.1274479
65	0xbd2b9fde	-0.041900508
66	0xbe4a93eb	-0.19782989
67	0x3e5cee2a	0.21575227
68	0x3da02aa3	0.07820632
69	0xbd70166e	-0.05861514
70	0x3e5d4886	0.21609697
71	0x3f821009	1.0161144
72	0x3edc858b	0.43070635
73	0x3ea70b3b	0.32625756
74	0x3d876077	0.06610196
75	0xbef48905	-0.47760788
76	0x3d387951	0.04503757
77	0xbe04a935	-0.12955172
78	0x3e254d08	0.16142666
79	0x3f117a5d	0.56827337
80	0xbeb09fe0	-0.34496975
81	0xbdc9fdfc	-0.09862897
82	0xbe0f779a	-0.14010468
83	0xbe81472b	-0.2524961
84	0xbd7e7fed	-0.06213372
85	0x3d7a827f	0.061159607
86	0x3cff492e	0.031162824
87	0xbd3a68d3	-0.045510124
88	0x3e1659ec	0.1468274
89	0xbee8c9e7	-0.4546654
90	0x3f370ff3	0.7150871
91	0xbe9e308b	-0.3089641
92	0x3e88a9ed	0.26692143
93	0x3f0fc806	0.56164587
94	0xbce6ac70	-0.028158396
95	0xbe2a4ab5	-0.16630061
96	0x3e333513	0.17500715
97	0x3e71fdfe	0.23632047
98	0x3e521138	0.20514381
99	0x3ed58729	0.41704682
100	0xbcd9cc1f	-0.02658659
101	0xbe1f5198	-0.1555847
102	0xbcf02e6e	-0.029319014
103	0xbe771d7c	-0.24132341
104	0xbd212178	-0.03933856
105	0xbda7c9a4	-0.08192757
106	0x3ee8ab96	0.4544341
107	0x3e28fcce	0.16502687
108	0xbda36969	-0.0797909
109	0x3ea8cd28	0.32969022
110	0x3e0648d1	0.13113715
111	0xbe8e52e0	-0.27797604
112	0x3e40808f	0.18799041
113	0xbe1dff1a	-0.15429345
114	0xbf0f1c6e	-0.55902755
115	0x3e5ad836	0.2137154
116	0x3c62e546	0.013848608
117	0x3e70a10b	0.23498933
118	0x3e3c2c37	0.18376242
119	0x3db1d5ff	0.08683395
120	0x3e9a322c	0.30116403
121	0xbe00efa8	-0.12591422
122	0x3e552679	0.20815457
123	0xbee541ef	-0.44776866
124	0x3e52acf7	0.20573793
125	0xbe1a5154	-0.15070087
126	0xbeae690f	-0.34064528
127	0xbd8689b2	-0.06569232
128	0xbe035aca	-0.12827602
129	0xbe021916	-0.12704882
130	0x3ec4cad6	0.38436002
131	0x3ead22ed	0.3381571
132	0x3ed8c2e0	0.42336178
133	0x3f0ff4c1	0.5623284
134	0x3e6935a8	0.22774374
135	0x3e04110d	0.1289713
136	0x3ed9b428	0.4252026
137	0x3e7554c2	0.23958114
138	0x3d6f99da	0.058496334
139	0x3e8fdef2	0.2809978
140	0x3ed187af	0.4092383
141	0x3e3a83f7	0.18214403
142	0xbd8e4ef2	-0.069486514
143	0xbe38831a	-0.18018761
144	0x3e999669	0.29997566
145	0x3ee962fe	0.45583338
146	0x3d929cbc	0.07158801
147	0xbecfa89e	-0.40558332
148	0xbe6042f3	-0.21900539
149	0xbdccf1af	-0.10007035
150	0xbea1d37f	-0.3160667
151	0x3eb556d8	0.3541782
152	0x3f09e14f	0.5385942
153	0x3e78a5d3	0.24282007
154	0xbe718c9e	-0.23588797
155	0x3e7406a4	0.23830658
156	0xbe826dd2	-0.2547441
157	0xbe222f38	-0.15838325
158	0x3f06ab7f	0.5260543
159	0xbde41c77	-0.11138242
160	0xbf17638f	-0.5913629
161	0x3f3fd43e	0.7493323
162	0x3dcd9dba	0.100398496
163	0x3eb053b1	0.3443885
164	0x3d119797	0.035544958
165	0x3ec4a640	0.3840809
166	0xbeb5a30d	-0.3547596
167	0x3e85abe7	0.26107714
168	0x3e6eaefe	0.23308942
169	0x3e96f171	0.2948108
170	0xbd00b934	-0.031426623
171	0x3e9f39e1	0.31098846
172	0x3e2e0109	0.16992582
173	0x3e9fa8b9	0.31183413
174	0xbeb9cd99	-0.3628967
175	0xbda4ce78	-0.08047193
176	0xbef0945e	-0.46988195
177	0x3dcb4771	0.09925736
178	0xbe4998ef	-0.19687246
179	0x3f05797a	0.52138484
180	0x3c88df5a	0.016708065
181	0x3d42e360	0.047580123
182	0x3ed47fd0	0.41503763
183	0xbcc1f9c8	-0.023678675
184	0x3f0884dc	0.5332773
185	0xbefd4af4	-0.49471247
186	0xbeca2e8d	-0.3948864
187	0x3eeb6f4d	0.45983353
188	0xbe1af4c7	-0.15132438
189	0x3da16f3e	0.07882546
190	0x3be60f9b	0.0070209033
191	0xbe8e169c	-0.27751625
192	0xbeb0376a	-0.34417278
193	0x3edef711	0.43547872
194	0xbe8d9878	-0.27655387
195	0x3e981655	0.29704538
196	0xbe4ae628	-0.1981436
197	0xbe5bfdfb	-0.21483605
198	0xbe6235bd	-0.22090812
199	0x3ec316e5	0.38103405
200	0xbe9795f6	-0.296066
201	0xbeec6ad1	-0.46175244
202	0x3e36d40b	0.17854325
203	0x3fae255c	1.3605151
204	0x3e36614f	0.17810558
205	0xbe61e0bd	-0.22058387
206	0xbd3892ae	-0.04506176
207	0xbe928b7b	-0.2862204
208	0x3e201da0	0.15636301
209	0x3f100526	0.56257856
210	0xbe2e13ec	-0.16999787
211	0x3d34801f	0.0440675
212	0x3efd0344	0.49416554
213	0x3f017041	0.5056191
214	0xbe69c687	-0.22829638
215	0x3ee7b5a5	0.4525577
216	0x3e179870	0.14804244
217	0x3f1a5689	0.6028829
218	0xbf1c1c2e	-0.609805
219	0x3eefd2f1	0.46840623
220	0xbec9a40c	-0.3938297
221	0xbea4d232	-0.32191616
222	0xbe4f5b58	-0.20249689
223	0xbdae31cb	-0.08505591
224	0x3f605aa7	0.87638324
225	0x3f360794	0.71105313
226	0xbe904995	-0.2818114
227	0x3e3304ec	0.17482346
228	0x3cf2a89b	0.029621413
229	0xbdc63c76	-0.09679501
230	0x3e39b95a	0.18137112
231	0xbd598c2e	-0.0531122
232	0xbd8e0aff	-0.06935691
233	0xbed982bf	-0.42482564
234	0xbc0ba7c7	-0.008523888
235	0xbe8daafc	-0.27669513
236	0x3f00c96f	0.50307363
237	0x3d664f3a	0.0562279
238	0x3e01362a	0.12618318
239	0xbf0881e0	-0.53323174
240	0x3def5dc1	0.11687804
241	0x3ed00d87	0.4063532
242	0xbefa00c1	-0.488287
243	0xbea6701e	-0.32507414
244	0x3ec96ab5	0.39339224
245	0xbefb544e	-0.49087757
246	0x3ebbf3f5	0.36709562
247	0xbc0dc413	-0.008652705
248	0xbca5a0c4	-0.02021826
249	0x3e80c5b3	0.25150833
250	0x3e36c3fd	0.17848201
251	0x3db6a76c	0.08918652
252	0xbe28306f	-0.16424726
253	0x3e79d13f	0.24396227
254	0xbb5b63fe	-0.0033476348
255	0xbe87dd40	-0.26535988

sequential_15/dense_59/MatMul;StatefulPartitionedCall/StatefulPartitionedCall/sequential_15/dense_59/MatMul;sequential_15/dense_59/Relu;StatefulPartitionedCall/StatefulPartitionedCall/sequential_15/dense_59/Relu;sequential_15/dense_59/BiasAdd;StatefulPartitionedCall/StatefulPartitionedCall/sequential_15/dense_59/BiasAdd f4 [16]
0	0x3f1a7ff0	0.6035147
1	0xbfc6773f	-1.5505141
2	0xbfc2458d	-1.5177475
3	0xbda49456	-0.08036105
4	0x3ec95f7d	0.39330664
5	0x3f45b435	0.772281
6	0x3f59e898	0.85120535
7	0x3e4f33fb	0.20234673
8	0xbe501ffd	-0.20324703
9	0xbf1edf60	-0.62059593
10	0xbfba4c15	-1.4554468
11	0xbf2c14da	-0.67219317
12	0x3dace08a	0.08441265
13	0xbd88d151	-0.06680549
14	0xbf7bd680	-0.98374176
15	0x3f91875d	1.1369435

sequential_15/batch_normalization_43/batchnorm/mul_1;StatefulPartitionedCall/StatefulPartitionedCall/sequential_15/batch_normalization_43/batchnorm/mul_1;sequential_15/batch_normalization_43/batchnorm/add_1;StatefulPartitionedCall/StatefulPartitionedCall/sequential_15/batch_normalization_43/batchnorm/add_1;sequential_15/dense_59/MatMul;StatefulPartitionedCall/StatefulPartitionedCall/sequential_15/dense_59/MatMul;sequential_15/dense_59/Relu;StatefulPartitionedCall/StatefulPartitionedCall/sequential_15/dense_59/Relu;sequential_15/dense_59/BiasAdd;StatefulPartitionedCall/StatefulPartitionedCall/sequential_15/dense_59/BiasAdd f4 [16, 32]
0	0xbd068dc7	-0.032850053
1	0x3ef1f784	0.47259152
2	0xbef76432	-0.4831863
3	0xbe82f566	-0.2557785
4	0xbcb6409b	-0.022247603
5	0x3ed68747	0.41900083
6	0xbdaf12bd	-0.08548496
7	0xbce3356a	-0.02773543
8	0xbed8d564	-0.42350304
9	0x3e547537	0.20747839
10	0x3d317e07	0.04333308
11	0xbf0d25aa	-0.55135596
12	0xbe2c9f74	-0.16857702
13	0x3eaff244	0.34364522
14	0xbe593ce2	-0.21214631
15	0x3e03ce72	0.12871721
16	0xbc70d8e7	-0.014700151
17	0xbebf8bb6	-0.37411278
18	0xbec8016b	-0.39063582
19	0xbe528019	-0.20556678
20	0xbe15107a	-0.14557067
21	0x3daa8b86	0.08327393
22	0x3eebccba	0.4605463
23	0xbec5db16	-0.38643712
24	0x3e8456d0	0.25847483
25	0xbe8695fe	-0.2628631
26	0x3ebdd766	0.37078398
27	0x3f19a204	0.6001284
28	0xbe2a68c8	-0.16641533
29	0xbe3bcebe	-0.18340585
30	0xbeea2660	-0.45732403
31	0x3ce19406	0.027536403
32	0x3d4ba60e	0.04971891
33	0x3eb70e93	0.35753307
34	0xbda7395f	-0.081652395
35	0x3dc4b5b3	0.09604969
36	0x3ed78f3f	0.42101476
37	0xbec2b2db	-0.3802708
38	0x3e2caaee	0.1686208
39	0x3eac8b1d	0.33699885
40	0xbe5b2556	-0.21400961
41	0x3e755765	0.2395912
42	0x3e33a305	0.17542656
43	0xbdf6401d	-0.120239474
44	0xbe30c207	-0.17261516
45	0x3e80c621	0.2515116
46	0x3eb38b9a	0.35067445
47	0x3d9276fc	0.07151601
48	0xbe2c815a	-0.16846219
49	0x3e81f2d6	0.25380582
50	0x3cde4344	0.027131684
51	0x3d060598	0.03272018
52	0x3e7349b7	0.23758589
53	0xbdc4cbb3	-0.09609165
54	0x3db35e91	0.087582715
55	0x3e6c5f1c	0.23083156
56	0xbd81bab1	-0.06334437
57	0x3ea6db84	0.32589352
58	0x3d153db3	0.036435794
59	0x3e251ea3	0.16124968
60	0x3e4054a3	0.18782286
61	0x3cd1ca24	0.025609083
62	0x3e6c7df8	0.23094928
63	0xbd8dff1a	-0.069334224
64	0xbbe1905e	-0.006883665
65	0xbf04fdd2	-0.519498
66	0x3a5b24c5	0.0008359666
67	0xbdd44ace	-0.1036583
68	0x3e712262	0.23548272
69	0x3e5f696c	0.21817559
70	0x3ea9ac7f	0.33139417
71	0x3e9fe750	0.31231165
72	0x3eca2dce	0.3948807
73	0xbeb8b575	-0.3607594
74	0x3eba3a41	0.3637257
75	0xbe2b3cf2	-0.16722468
76	0x3e9eadf9	0.30992106
77	0x3e4e9ff3	0.20178203
78	0xbde9245c	-0.11383888
79	0xbe51f6cf	-0.20504306
80	0xbec6347b	-0.38711914
81	0x3ec5edf4	0.38658106
82	0xbed03696	-0.40666646
83	0xbf0e5975	-0.5560525
84	0x3ebbfc5a	0.36715966
85	0x3e246bdb	0.16056769
86	0x3d52fd1d	0.05151092
87	0x3bb66a72	0.0055668885
88	0xbdc4f4b6	-0.096169874
89	0x3ef51821	0.4786997
90	0x3ea1f9bc	0.31635845
91	0xbd9ddd2b	-0.077082
92	0x3ee645dc	0.44975173
93	0xbd8f6562	-0.07001759
94	0x3e873ccf	0.2641358
95	0x3f118206	0.56839025
96	0xbe7e0d42	-0.24809745
97	0xbdd70553	-0.104990624
98	0xbead30e7	-0.33826372
99	0x3cc43fe9	0.023956256
100	0x3e4da90a	0.20084015
101	0xbd16c581	-0.03680945
102	0x3e4fd81c	0.20297283
103	0xbdeb82b6	-0.114995405
104	0xbd6ebeb8	-0.058287352
105	0x3e2b8ef5	0.16753753
106	0xbe8310be	-0.2559871
107	0x3e835de3	0.25657567
108	0x3eb95874	0.36200297
109	0x3e8c9da5	0.27464023
110	0x3ddb17d9	0.10697908
111	0x3eb3e7e3	0.35137853
112	0xbebe9aab	-0.37227377
113	0x3d9af276	0.07565777
114	0x3d86ffc6	0.06591754
115	0x3e6ef4f2	0.23335627
116	0xbd815fce	-0.063171014
117	0xbcf52480	-0.029924631
118	0xbe7d62c9	-0.24744715
119	0xbbae8bcb	-0.005326723
120	0xbd2cf21d	-0.042223085
121	0x3db15ec8	0.08660656
122	0x3f221060	0.63306236
123	0x3e7e0f83	0.24810605
124	0xbde6c657	-0.11268299
125	0xbd4cd382	-0.050006397
126	0xbe260f91	-0.16216876
127	0xbec12238	-0.3772142
128	0xbeda618b	-0.42652544
129	0x3e9dc25a	0.3081234
130	0x3c2e49d0	0.010637715
131	0x3f09f831	0.53894335
132	0xbf1499e1	-0.580473
133	0xbdace0fb	-0.08441349
134	0x3e62b401	0.22138979
135	0xbea77d46	-0.32712764
136	0x3a6cda3f	0.0009035207
137	0x3e4b7420	0.19868517
138	0xbe665ffa	-0.2249755
139	0x3ed8e23d	0.42360106
140	0xbe7ee8e9	-0.24893536
141	0xbf198f01	-0.5998383
142	0x3e647f37	0.22314154
143	0x3ef8eca0	0.4861803
144	0xbec3dc32	-0.38253933
145	0x3e3d55e3	0.18489794
146	0x3af2f426	0.0018535897
147	0x3d990937	0.07472461
148	0x3df1d806	0.11808781
149	0x3ea01462	0.3126555
150	0x3deeffea	0.116699055
151	0x3d9699e2	0.073535696
152	0x3d8cfc7f	0.06884097
153	0xbe471343	-0.19440942
154	0xbe0164da	-0.12636128
155	0x3e562818	0.20913732
156	0xbefa24d6	-0.4885623
157	0xbeb564e5	-0.3542854
158	0xbd88e842	-0.06684925
159	0x3e969572	0.29410893
160	0xbe88658d	-0.26639977
161	0xbe1dba86	-0.15403184
162	0x3de6a9dd	0.112628676
163	0xbeac461f	-0.33647248
164	0x3ed9271d	0.42412654
165	0xbf075977	-0.5287089
166	0xbe577a28	-0.21042693
167	0xbb26a7c8	-0.0025429595
168	0xbefe5a93	-0.49678478
169	0x3eb7322a	0.3578046
170	0x3e9fc67f	0.31206128
171	0x3e971e9c	0.2951554
172	0xbdf5b2e3	-0.119970106
173	0xbd348ca1	-0.044079427
174	0x3eb92441	0.36160472
175	0xbf077027	-0.52905506
176	0x3edc1d01	0.42990878
177	0xbe620615	-0.22072633
178	0x3edbeb08	0.42952752
179	0x3f012bcc	0.50457454
180	0xbed460cc	-0.414801
181	0xbef0d935	-0.47040716
182	0xbec4dcd9	-0.38449743
183	0xbde03224	-0.109470636
184	0xbe27321b	-0.16327707
185	0xbed0cd6c	-0.40781724
186	0xbeb62c7b	-0.3558081
187	0x3eab3611	0.33439687
188	0x3dca5d1b	0.0988104
189	0xbde3c792	-0.111220494
190	0x3e5417cc	0.20712203
191	0x3e6ffea6	0.23436984
192	0x3e04ff53	0.12988023
193	0xbd124e01	-0.03571892
194	0x3e4975bb	0.19673817
195	0xbdee5771	-0.11637772
196	0xbcc30f49	-0.023811
197	0xbd7b208e	-0.061310343
198	0xbdd4bdec	-0.10387787
199	0xbe70366d	-0.23458262
200	0x3db05d7a	0.08611579
201	0x3b66c451	0.0035212229
202	0xbe370b67	-0.17875443
203	0x3e1339cc	0.14377517
204	0xbd4832ee	-0.048876695
205	0xbe508637	-0.20363699
206	0x3d3d44ea	0.0462083
207	0x3da98bb0	0.082785964
208	0x3e58d60c	0.21175402
209	0x3e1564e1	0.14589263
210	0xbe600bb0	-0.21879458
211	0xbec6d9de	-0.38838094
212	0xbe8d3778	-0.27581382
213	0xbd6c413c	-0.0576794
214	0xbcef14aa	-0.029184658
215	0xbdcaf734	-0.099104315
216	0xbd3f2e03	-0.04667474
217	0xbde425f6	-0.11140053
218	0xbe5b29d3	-0.21402673
219	0x3d356537	0.04428598
220	0xbd1b86d0	-0.037970364
221	0xbeafdcd4	-0.34348166
222	0xbe96b80b	-0.2943729
223	0x3e1df0ca	0.15423885
224	0xbd2c76f1	-0.04210562
225	0xbd6265dc	-0.055272922
226	0x3e7016da	0.23446217
227	0x3e8d0b45	0.2754766
228	0x3edef808	0.43548608
229	0xbee417ef	-0.4454951
230	0xbee4e331	-0.44704583
231	0x3e035721	0.12826206
232	0xbdde0537	-0.108408384
233	0x3e450192	0.1923888
234	0xbd550463	-0.052006137
235	0x3e187ba4	0.14890915
236	0x3cae1c1d	0.02125364
237	0xbd857fa7	-0.065184884
238	0x3eb3aeec	0.35094392
239	0x3e07729a	0.13227311
240	0x3ec8978a	0.39178115
241	0xbdd7720b	-0.10519799
242	0x3f0df515	0.5545209
243	0xbe8e001c	-0.27734458
244	0xbeb6e88b	-0.3572429
245	0x3dcc4757	0.099745445
246	0xbd9c4119	-0.07629604
247	0x3d8069bd	0.06270168
248	0xbe8bf068	-0.27331853
249	0x3dafa81f	0.085769884
250	0x3ef2f1d7	0.47450134
251	0x3e9afeb2	0.30272442
252	0xbeeac1d1	-0.45850995
253	0xbe5c6a3d	-0.21524902
254	0xbf1515e5	-0.58236533
255	0xbd3ea81e	-0.046547048

sequential_15/dense_60/MatMul;StatefulPartitionedCall/StatefulPartitionedCall/sequential_15/dense_60/MatMul;sequential_15/dense_60/BiasAdd;StatefulPartitionedCall/StatefulPartitionedCall/sequential_15/dense_60/BiasAdd f4 [3]
0	0xbe2b5784	-0.16732603
1	0xbf614178	-0.8799052
2	0xbe870b31	-0.26375726

sequential_15/batch_normalization_44/batchnorm/mul_1;StatefulPartitionedCall/StatefulPartitionedCall/sequential_15/batch_normalization_44/batchnorm/mul_1;sequential_15/batch_normalization_44/batchnorm/add_1;StatefulPartitionedCall/StatefulPartitionedCall/sequential_15/batch_normalization_44/batchnorm/add_1;sequential_15/dense_60/MatMul;StatefulPartitionedCall/StatefulPartitionedCall/sequential_15/dense_60/MatMul;sequential_15/dense_60/BiasAdd;StatefulPartitionedCall/StatefulPartitionedCall/sequential_15/dense_60/BiasAdd f4 [3, 16]
0	0x3e387fa4	0.18017441
1	0x3e4f04a9	0.20216621
2	0xbe6e8462	-0.23292688
3	0x3ec9c31c	0.3940667
4	0xbea30751	-0.3184152
5	0xbe82a58f	-0.25516936
6	0x3e71a83e	0.23599336
7	0xbee860fe	-0.453865
8	0x3f679f6f	0.9047765
9	0x3e01d2c1	0.12678052
10	0xbe4fc532	-0.20290068
11	0xbdc525c5	-0.096263446
12	0x3e391363	0.18073802
13	0xbe813955	-0.25239053
14	0x3eab9484	0.33511746
15	0xbdcc43ef	-0.09973895
16	0x3d874b3c	0.06606147
17	0x3ee9376c	0.45550096
18	0xbeb5d66d	-0.35515156
19	0xbe9594f8	-0.29215217
20	0x3e89891a	0.26862413
21	0x3ec3629d	0.38161173
22	0x3f47c641	0.78036886
23	0x3e89e2f2	0.26930958
24	0x3f5a950a	0.85383666
25	0xbecf4122	-0.4047938
26	0x3e7bf63d	0.24605651
27	0xbc53fb69	-0.012938359
28	0xbe5e3b9b	-0.21702425
29	0xbe3c5096	-0.18390116
30	0x3d8d881f	0.06910729
31	0x3e1f8ae1	0.15580322
32	0xbecaef50	-0.39635706
33	0x3e0f05d9	0.13967074
34	0x3e1b4264	0.15162045
35	0xbbc77cbb	-0.006087867
36	0xbecf01cc	-0.40431058
37	0x3ed74404	0.4204408
38	0x3e52c49f	0.20582817
39	0xbe6b6b48	-0.22990143
40	0x3f212212	0.6294261
41	0x3eae1f2f	0.34008166
42	0xbe51d5d7	-0.2049173
43	0xbee89a76	-0.45430344
44	0x3ef7345d	0.48282138
45	0x3e8786bf	0.2646999
46	0xbe67b46a	-0.22627416
47	0x3f05445a	0.5205742

dense_57/bias f4 [64]
0	0x3bff4cce	0.0077911383
1	0x3c59f27e	0.013302444
2	0xbd767ef4	-0.060179666
3	0x3d37b4f4	0.044850305
4	0x3c20d352	0.009816008
5	0x3d863127	0.06552344
6	0xbb760300	-0.003753841
7	0xbd0d35e7	-0.034475233
8	0xbc5639c4	-0.013075296
9	0xbd5f8e1f	-0.054578897
10	0x3cfce4e8	0.03087087
11	0xbd3759ac	-0.044763252
12	0xbce412ed	-0.027841056
13	0x3cd7d438	0.026346311
14	0x3d42dddb	0.04757486
15	0x3cc036c7	0.02346362
16	0xbd87e53f	-0.06635522
17	0x3d30b4fb	0.043141346
18	0x3cc985ca	0.024599928
19	0xbd4a3db6	-0.04937526
20	0x3c3543a4	0.01106349
21	0x3c6830e2	0.014171811
22	0xbce01b8d	-0.027356887
23	0x3c442f4d	0.011974168
24	0xbd4c0dad	-0.04981773
25	0x3d06143e	0.03273415
26	0xbbf25ee1	-0.0073965644
27	0x3ba73e15	0.0051038363
28	0xbad9edcc	-0.0016626655
29	0xbcb73fa3	-0.022369212
30	0x3d36ef27	0.044661667
31	0x3ce5cf8c	0.028053068
32	0xbdea0363	-0.11426427
33	0xbc25d6b6	-0.010121992
34	0x3ca837dd	0.02053445
35	0x3ddb2cd6	0.10701911
36	0xbd85a8be	-0.06526326
37	0xbd1a9d19	-0.037747476
38	0xbbde236a	-0.006779124
39	0xbe11f1e6	-0.14252433
40	0xbd1d3585	-0.03838112
41	0x3d7988dc	0.060921535
42	0xbd88771c	-0.06663343
43	0xbc961a84	-0.01832319
44	0x3cde1ef5	0.02711437
45	0x3d0f46f3	0.03497977
46	0xbb87462c	-0.004128238
47	0xbd982150	-0.07428229
48	0x3d31d090	0.04341179
49	0xbd46c34f	-0.048526105
50	0x3cad0542	0.021120671
51	0x3dc72ac2	0.09724952
52	0xbd91a633	-0.07111778
53	0xbd2a8699	-0.04163227
54	0xbc701004	-0.014652256
55	0x3d276df9	0.040876362
56	0xbd2f8472	-0.04285092
57	0x3cde4118	0.027130648
58	0x3cb2e8c8	0.021839514
59	0x3d876e54	0.0661284
60	0x3c6a0959	0.014284455
61	0xbda05e9e	-0.07830547
62	0x3d81f8b9	0.06346268
63	0xbd4e42e6	-0.050356768

sequential_15/dense_57/MatMul;StatefulPartitionedCall/StatefulPartitionedCall/sequential_15/dense_57/MatMul f4 [64, 27]
0	0xbe80ba20	-0.25142002
1	0x3ebf6bf5	0.37387052
2	0x3dfe1365	0.12406043
3	0xbdce89c1	-0.10084868
4	0x3d50ddaf	0.050992664
5	0xbabd9928	-0.00144652
6	0x3e03c3ad	0.12867613
7	0x3d86b45f	0.06577372
8	0xbdcac678	-0.09901136
9	0xbe9791b3	-0.29603347
10	0xbec9b7bb	-0.39397988
11	0x3e06852e	0.13136742
12	0x3e0625c5	0.13100345
13	0xbacbbf49	-0.0015544678
14	0x3ea1bc04	0.31588757
15	0xbeaa6812	-0.33282524
16	0x3dbd104a	0.092316225
17	0x3e0f57f6	0.13998398
18	0x3e8f6039	0.280031
19	0xbe8c7361	-0.27431777
20	0xbe84a0a2	-0.25903803
21	0x3e9800ec	0.29688203
22	0x3de6066e	0.11231695
23	0xbe2899c9	-0.16464914
24	0x3ded77d1	0.11595119
25	0xbeb184a1	-0.346715
26	0xbd8ab4be	-0.06772755
27	0x3eac2fd2	0.33630234
28	0x3e6a8990	0.22904038
29	0x3e8a4d65	0.27012172
30	0xbd5a53d3	-0.053302597
31	0x3e050df4	0.12993604
32	0xbcfd7d5f	-0.03094357
33	0x3d9f11b0	0.077670455
34	0x3ea88060	0.32910442
35	0xbdf207ed	-0.11817918
36	0xbd528122	-0.051392682
37	0xbe2f9401	-0.17146303
38	0x3e94c1e5	0.2905418
39	0x3e8fb636	0.28068703
40	0x3db40ccc	0.08791503
41	0xbeb72872	-0.35773045
42	0x3d6e426e	0.05816882
43	0x3e69299e	0.22769782
44	0x3e8de2a1	0.27711967
45	0xbc000bf3	-0.007815349
46	0x3dc225f4	0.09479895
47	0xbe8afa2b	-0.27143988
48	0xbde85414	-0.11344162
49	0x3e4eb711	0.20187022
50	0xbeb98f2c	-0.36242044
51	0xbe273c87	-0.16331683
52	0xbe6cdfb5	-0.23132212
53	0xbe2b95f3	-0.1675642
54	0x3ea2c410	0.3179021
55	0x3e03e5ec	0.12880677
56	0x3dafc291	0.085820325
57	0xbe5cea5d	-0.21573777
58	0x3d013fb4	0.031554893
59	0x3d4920bc	0.049103484
60	0x3dad90c3	0.08474877
61	0xbe9e7d41	-0.30954936
62	0xbeb11a55	-0.34590402
63	0x3dab24f1	0.083566554
64	0xbdf14d3e	-0.11782311
65	0xbd078806	-0.033088706
66	0x3d7af89e	0.061272256
67	0xbe50d1ea	-0.20392576
68	0x3e7921b2	0.2432926
69	0x3e83eb64	0.25765526
70	0xbefb1276	-0.49037522
71	0xbe5d0823	-0.21585135
72	0x3c8906e7	0.016726924
73	0xbe993a7d	-0.29927436
74	0x3d76cade	0.060252063
75	0x3ea1aa6d	0.31575337
76	0xbe483c23	-0.1955419
77	0x3e316852	0.17324951
78	0x3e1b667e	0.15175816
79	0x3dbd7ccd	0.092523195
80	0x3e23680c	0.1595766
81	0x3e57e898	0.21084821
82	0xbce00ea5	-0.027350733
83	0xbe0cbf13	-0.13744764
84	0x3da1c3e1	0.07898689
85	0xbe072192	-0.131964
86	0x3c726d02	0.014796497
87	0xbe4a98bc	-0.19784826
88	0x3e6380d3	0.22217111
89	0xbe908c04	-0.28231823
90	0x3dda30e0	0.106538534
91	0x3ccb4d66	0.02481718
92	0xbe50698b	-0.20352761
93	0x3e69b308	0.22822201
94	0x3d8e363f	0.0694394
95	0xbe68c970	-0.22733092
96	0xbe426f69	-0.18987812
97	0x3dbf68a3	0.0934613
98	0x3e93dc73	0.28879127
99	0xbe32929a	-0.17438737
100	0xbed3d2a8	-0.41371655
101	0x3e3a27ad	0.18179198
102	0x3e753e45	0.23949535
103	0x3e8a924f	0.2706475
104	0xbcc9ae63	-0.024619287
105	0xbe23e875	-0.16006644
106	0x3dcff760	0.10154605
107	0xbccb52ff	-0.024819849
108	0x3e9f8152	0.3115335
109	0xbe458126	-0.19287547
110	0xbdd42162	-0.1035793
111	0xbe9d72da	-0.30751687
112	0x3cb02db1	0.021506162
113	0xbe57b32c	-0.21064442
114	0xbdcb235a	-0.09918852
115	0x3db21723	0.08695819
116	0x3db636e9	0.08897192
117	0x3dd979b7	0.106189184
118	0xbd24f655	-0.040273983
119	0xbd3c79f3	-0.046014737
120	0xbdea327e	-0.11435412
121	0x3d7dae58	0.061933845
122	0x3cf77ddf	0.030211387
123	0xbeb4add6	-0.35288876
124	0xbecf72ec	-0.40517366
125	0x3eeee759	0.4666088
126	0x3d71ed30	0.05906409
127	0xbc2ee0cc	-0.010673713
128	0xbdbdb615	-0.09263245
129	0xbd42d7e3	-0.047569167
130	0xbe9fee20	-0.31236362
131	0x3e9a4e1f	0.30137727
132	0x3dae9a6f	0.085255496
133	0x3e9148fc	0.28375995
134	0xbe2b416d	-0.16724177
135	0xbe2bcd1b	-0.1677746
136	0x3d2c33c5	0.04204156
137	0x3c98e63a	0.018664468
138	0x3e182991	0.14859606
139	0x3c2af0a7	0.010433353
140	0x3ea1072b	0.3145078
141	0xbda1d257	-0.07901447
142	0xbdf6c30a	-0.120489195
143	0x3e83161c	0.25602806
144	0x3e6076bd	0.21920295
145	0x3df0d41d	0.117592074
146	0xbe6093f8	-0.21931446
147	0x3d3995a9	0.045308743
148	0x3d180edb	0.037123542
149	0xbdf9c267	-0.121952824
150	0x3f025a6b	0.50919217
151	0x3e6292eb	0.22126357
152	0x3e624c8d	0.22099514
153	0xbcdabb36	-0.026700597
154	0xbe1cd5a6	-0.15315875
155	0xbc87b8d9	-0.016567634
156	0x3e9092b0	0.28236914
157	0xbde73033	-0.1128849
158	0xbe4abb48	-0.19798005
159	0xbe84092a	-0.25788242
160	0xbdc2bc8e	-0.0950862
161	0xbe52cae7	-0.20585214
162	0x3e021c8f	0.12706207
163	0xbd53c660	-0.051702857
164	0xbe9df980	-0.30854416
165	0xbe874e72	-0.26427037
166	0x3ec572c6	0.38564128
167	0xbc531f8c	-0.012885939
168	0x3e8b8d90	0.2725644
169	0x3d91fa3a	0.07127805
170	0x3e844df2	0.25840718
171	0xbe3bcf2d	-0.1834075
172	0xbd675e32	-0.056486316
173	0x3d16f5c0	0.03685546
174	0x3b56ac70	0.003275659
175	0xbc2a2f28	-0.0103872195
176	0xbe60fcd5	-0.21971448
177	0x3e8d03f6	0.27542084
178	0xbed2dd82	-0.41184622
179	0x3e218118	0.15771902
180	0x3c512943	0.012766185
181	0x3e857097	0.26062462
182	0xbdbf3f2a	-0.093382195
183	0x3d1fe945	0.039040823
184	0xbe7423c8	-0.23841774
185	0xbd291fe6	-0.041290186
186	0x3e17ea88	0.1483556
187	0xbe68c319	-0.22730674
188	0xbe83167d	-0.25603095
189	0x3e64b59e	0.22334906
190	0xbe8dbb75	-0.2768208
191	0x3e35dbe2	0.1775966
192	0x3e40f7bc	0.18844503
193	0x3c9a6d9c	0.018851094
194	0xbd4a5fe0	-0.04940784
195	0xbd96b9a1	-0.07359625
196	0x3d31fe8d	0.04345565
197	0xbeb73890	-0.3578534
198	0xbdc23966	-0.09483604
199	0x3c63d9f7	0.013906947
200	0x3e5888b2	0.21145895
201	0xbd6e8403	-0.058231365
202	0x3e28c742	0.16482261
203	0x3ea1a5b6	0.3157174
204	0xbe158bda	-0.1460413
205	0xbccc1746	-0.024913441
206	0xbe848d76	-0.25889176
207	0xbe75df20	-0.24010897
208	0x3e9a3a62	0.30122668
209	0xbe0eaf0b	-0.13933961
210	0xbe81b772	-0.2533527
211	0x3eafef91	0.34362462
212	0x3d99c656	0.07508533
213	0xbe63b4af	-0.22236894
214	0x3e002d1f	0.12517212
215	0xbdbd0711	-0.092298634
216	0xbe61f4a2	-0.22065976
217	0x3e5a0bd6	0.21293578
218	0xbe2529b0	-0.16129184
219	0x3d704c03	0.05866624
220	0x3e93ad84	0.2884332
221	0x3d0dc931	0.0346157
222	0xbe242b8b	-0.16032235
223	0xbd37a6e9	-0.044836912
224	0x3e88148a	0.2657817
225	0xbb3688d1	-0.0027852545
226	0x3e236265	0.15955503
227	0xbe954d45	-0.29160514
228	0xbd4485bf	-0.047979113
229	0x3cb3f401	0.021966936
230	0x3e2c09b8	0.16800582
231	0xbde6c2d2	-0.11267628
232	0x3eae73cf	0.3407273
233	0xbe4efbdc	-0.20213264
234	0xbe2dfd6c	-0.16991204
235	0xbe80dbdb	-0.25167736
236	0xb8f060f0	-0.00011462148
237	0x3d8106f9	0.06300158
238	0xbe2a336d	-0.1662118
239	0x3defbce7	0.11705952
240	0xbd8fada7	-0.070155434
241	0x3eaf6b7f	0.342617
242	0x3c6e3be1	0.014540643
243	0x3ea7e513	0.32791957
244	0x3e9902ec	0.29885042
245	0xbe7f3cbc	-0.24925512
246	0x3ef321c5	0.47486702
247	0x3e7442cc	0.23853606
248	0xbe2dea59	-0.16983928
249	0xbdb1958c	-0.08671102
250	0x3e0957ce	0.13412401
251	0x3d9c4950	0.07631171
252	0xbe1b50c7	-0.15167533
253	0x3d17bea3	0.03704704
254	0xbe4d956a	-0.20076528
255	0xbcd95860	-0.026531398
