tflite_model.tflite (tflite, 8496 bytes, 6 tensors)

sequential/dense_1/MatMul;sequential/dense_1/Relu;sequential/dense_1/BiasAdd f4 [16]
0	0xbf1129bb	-0.567043
1	0xbeb1b287	-0.34706518
2	0x3edf738b	0.4364284
3	0xbf590d5e	-0.8478602
4	0xc033f5ed	-2.811885
5	0x3f502043	0.8129923
6	0xbfd25593	-1.6432365
7	0x3f2f0ad0	0.68375874
8	0x401181b7	2.2735422
9	0x3e9fa168	0.3117783
10	0x3f17d5c8	0.5931058
11	0xbfeeea18	-1.866519
12	0x3f475d10	0.7787638
13	0x3e7ccf66	0.24688491
14	0x3ea6ead4	0.32601035
15	0x3e88095c	0.2656964

sequential/batch_normalization/batchnorm/mul_1;sequential/batch_normalization/batchnorm/add_1;sequential/dense_1/MatMul;sequential/dense_1/Relu;sequential/dense_1/BiasAdd f4 [16, 32]
0	0xbe981293	-0.2970167
1	0x3f6dbc2a	0.9286524
2	0xbe8b7bcf	-0.27242896
3	0x3f973c7b	1.1815332
4	0xbf30587f	-0.68885034
5	0x3d22eaf4	0.03977485
6	0x3f290095	0.66016513
7	0x3f2833de	0.65704143
8	0x3d577318	0.052599996
9	0x3e9a8f13	0.30187282
10	0xbf114913	-0.5675213
11	0x3e6197da	0.22030583
12	0x3f0cf43b	0.55060166
13	0xbf04e088	-0.5190511
14	0xbe751b57	-0.2393621
15	0x3f2c37b7	0.67272514
16	0xbec5c033	-0.386232
17	0xbf0a59aa	-0.54043067
18	0x3e77e046	0.24206647
19	0xbe23881e	-0.15969893
20	0xbf088bf0	-0.5333853
21	0x3d021522	0.031758435
22	0x3e0d2e43	0.13787179
23	0xbec116a8	-0.37712598
24	0x3e2be3ec	0.16786164
25	0x3ebdccc7	0.37070295
26	0x3ebbb47a	0.3666113
27	0x3d8c00ef	0.068361156
28	0xbf8c249d	-1.0948673
29	0x3ee8f409	0.45498684
30	0xbeabe703	-0.33574685
31	0xbec33e57	-0.381335
32	0xbe11678b	-0.14199655
33	0x3f04cba6	0.5187324
34	0xbe367d52	-0.17821243
35	0xbb8d0deb	-0.0043046377
36	0x3e10ad62	0.1412864
37	0xbb9f8498	-0.0048681013
38	0x3e461544	0.1934405
39	0x3f295a2a	0.66153204
40	0xbdacfa78	-0.084462106
41	0x3eee6673	0.46562538
42	0xbe401779	-0.18758954
43	0xbed568f7	-0.41681644
44	0x3e3993e2	0.18122819
45	0xbea6f2e7	-0.32607195
46	0x3e8d36e7	0.2758095
47	0xbf6dda33	-0.9291107
48	0xbe468535	-0.19386752
49	0x3f4865a9	0.7828012
50	0x3f028163	0.5097868
51	0xbe6d778b	-0.23190133
52	0xbe12a525	-0.1432081
53	0x3ea5f483	0.3241311
54	0x3e66bf1d	0.22533841
55	0x3f0576fd	0.52134687
56	0x3e55a222	0.2086263
57	0xbecaf738	-0.39641738
58	0xbda27f9d	-0.079344966
59	0x3de6b461	0.11264873
60	0xbed8b5a1	-0.42326072
61	0xbdae5fdd	-0.08514378
62	0x3d7f8023	0.06237806
63	0xbe05eecb	-0.13079374
64	0x3dcec86c	0.10096821
65	0x3de4006f	0.11132895
66	0xbcd522a3	-0.026017493
67	0xbf18335e	-0.5945338
68	0x3d8a3491	0.067483075
69	0x3d40073f	0.04688191
70	0xbf6c91b6	-0.9240984
71	0xbf74f9d0	-0.95693684
72	0xbce9962b	-0.028513988
73	0xbf00830f	-0.5019998
74	0x3e39910e	0.1812174
75	0x3e7251f7	0.2366408
76	0x3e7de0a0	0.24792719
77	0x3db23cb8	0.087029874
78	0x3d5cf58b	0.053945106
79	0x3f0617eb	0.52380246
80	0xbe011d6f	-0.12608884
81	0x3eee7f0e	0.4658131
82	0xbf120fe9	-0.57055527
83	0x3e254828	0.16140807
84	0x3ec098f5	0.37616697
85	0x3f85596f	1.0417918
86	0xbe368829	-0.17825378
87	0x3ee23c69	0.44186714
88	0xbe19376f	-0.14962552
89	0x3e84f068	0.25964665
90	0xbe90858a	-0.28226882
91	0xbd9d617c	-0.07684609
92	0xbf06e008	-0.52685595
93	0x3e12c4fc	0.14332956
94	0xbe357516	-0.17720446
95	0xbe2b0e93	-0.16704778
96	0x3d58e987	0.052957084
97	0xbea6da44	-0.32588398
98	0xbd2ca538	-0.042149752
99	0xbedb60b4	-0.42847216
100	0x3f3c8085	0.73633605
101	0x3df7df52	0.12103142
102	0x3ecac699	0.39604643
103	0xbef09c60	-0.46994305
104	0xbe19bb0a	-0.15012756
105	0x3f28e696	0.65976846
106	0x3e8d77d9	0.276305
107	0xbe13902c	-0.14410466
108	0x3f074a7e	0.5284804
109	0xbd203716	-0.039115034
110	0xbedc40e5	-0.4301826
111	0xbf3bcb22	-0.7335683
112	0x3f3c263b	0.73495835
113	0xbee6f1e6	-0.4510643
114	0xbe36e882	-0.17862132
115	0x3f0bdc75	0.54633266
116	0xbe51c669	-0.20485844
117	0x3efc1dff	0.49241635
118	0xbc83c79c	-0.016086392
119	0x3e7d32cc	0.24726409
120	0x3f15d5d6	0.5852941
121	0xbed9af96	-0.42516774
122	0xbebaf3bc	-0.3651408
123	0x3e74719e	0.23871467
124	0xbf1a10cf	-0.601819
125	0x3efb4a7c	0.49080265
126	0xbef72034	-0.48266757
127	0x3ea9d6d0	0.331717
128	0xbdda67ca	-0.106643274
129	0xbe9dbab1	-0.30806497
130	0x3ecc711a	0.3993004
131	0x3f55ab32	0.8346435
132	0x3e394c6e	0.18095562
133	0x3de1a4e2	0.11017777
134	0xbe49ffea	-0.1972653
135	0x3fd67800	1.6755371
136	0x3f000778	0.50011396
137	0xbebff4ff	-0.37491605
138	0x3ebe3380	0.37148666
139	0xbb7d34b9	-0.0038636161
140	0x3ec12458	0.3772304
141	0x3e8fbe60	0.28074932
142	0xbec3837c	-0.38186252
143	0x3f2865e4	0.6578047
144	0x3ea51098	0.32239223
145	0x3f0accde	0.5421885
146	0xbeecb33d	-0.46230498
147	0x3e2c6f1d	0.16839261
148	0x3d9ad798	0.075606525
149	0xbe6d587d	-0.23178287
150	0x3e23b804	0.15988165
151	0x3f27d66c	0.65561557
152	0x3deefd40	0.11669397
153	0x3f18bb7d	0.59661084
154	0x3f05d32a	0.52275336
155	0x3e4348ac	0.19070691
156	0x3ddb50ca	0.10708769
157	0x3e634c58	0.22197092
158	0xbd5a274c	-0.053260133
159	0xbef47895	-0.47748247
160	0x3cbdc828	0.023166731
161	0x3cd5725c	0.026055507
162	0xbe18d3e4	-0.1492458
163	0x3f1f9d20	0.6234913
164	0xbed2e748	-0.4119208
165	0xbee1e351	-0.4411874
166	0xbe275f2d	-0.163449
167	0x3e278aba	0.16361514
168	0xbf1d1536	-0.6136049
169	0xbf351723	-0.7073843
170	0x3e8f119a	0.27943116
171	0x3e40b15c	0.18817657
172	0xbdacba35	-0.08433954
173	0xbd3c2da6	-0.04594197
174	0xbe1ef744	-0.15524012
175	0x3efc8df5	0.49327055
176	0xbedc1045	-0.42981163
177	0x3db1d503	0.08683207
178	0xbe6f9fd3	-0.23400812
179	0x3dad4e4b	0.08462199
180	0xbee4dfd1	-0.44702008
181	0x3f3507b0	0.70714855
182	0x3db188b0	0.08668649
183	0xbe587331	-0.21137692
184	0xbec63406	-0.38711566
185	0xbf0b3114	-0.5437176
186	0x3ecd9081	0.4014931
187	0x3e923612	0.28556877
188	0x3f263c4a	0.64935744
189	0xbeb01d9e	-0.34397596
190	0x3dfbde71	0.12298287
191	0x3e92bad3	0.2865816
192	0x3e0d1b61	0.13779975
193	0xbf9de8ca	-1.2336667
194	0x3e072f8e	0.13201734
195	0xbd114522	-0.03546632
196	0xbe12bba5	-0.14329393
197	0xbdc985ec	-0.09839997
198	0xbed3f2b4	-0.41396105
199	0xbe506c9c	-0.20353931
200	0x3e5dd782	0.21664241
201	0x3f286b28	0.6578851
202	0x3f3807f4	0.71887136
203	0xbf3eb162	-0.74489415
204	0x3e5ebcbb	0.21751682
205	0x3f386bee	0.7203969
206	0xbe8c0da1	-0.27354148
207	0x3ea97989	0.33100536
208	0x3dfe0fde	0.1240537
209	0x3e31904b	0.173402
210	0x3f4e2174	0.80519795
211	0x3e32d90d	0.17465611
212	0x3f302f3c	0.68822074
213	0xbc873e5a	-0.016509224
214	0x3e70a99a	0.23502198
215	0xbea6584b	-0.32489237
216	0xbec7c6ec	-0.39018953
217	0x3f7328a8	0.9498391
218	0x3e354d31	0.17705227
219	0xbd84a566	-0.0647686
220	0xbf61ddd5	-0.88229114
221	0xbb785e23	-0.0037897907
222	0x3f0685ac	0.5254772
223	0xbe23e3ef	-0.16004919
224	0x3daaa455	0.08332125
225	0xbf2804a7	-0.656321
226	0xbe0fa4c6	-0.140277
227	0xbc7089b0	-0.014681265
228	0xbef09891	-0.469914
229	0x3dc6da06	0.097095534
230	0x3d2d3105	0.042283077
231	0xbea0a1d3	-0.31373462
232	0x3e05d96d	0.13071223
233	0xbe403f0b	-0.18774049
234	0x3f36e94f	0.7144975
235	0xbe87a682	-0.26494223
236	0x3eb049ed	0.344314
237	0x3d573874	0.052544072
238	0x3e14443c	0.14479154
239	0xbefea4c7	-0.4973509
240	0x3ee07693	0.43840465
241	0x3e0500de	0.12988612
242	0xbda3dbd6	-0.08000915
243	0xbf028351	-0.5098162
244	0xbf6019e7	-0.87539524
245	0x3f827e50	1.0194798
246	0xbddfc792	-0.10926737
247	0xbef37503	-0.4755021
248	0xbe211301	-0.15729906
249	0xbf1d2720	-0.61387825
250	0xbe269fa6	-0.16271839
251	0xbeaccbc2	-0.33749205
252	0x3ed38482	0.41312033
253	0x3e9b7b3e	0.30367464
254	0x3ecdaa81	0.40169147
255	0xbd86f1da	-0.06589098

sequential/dense_2/MatMul;sequential/dense_2/BiasAdd f4 [3]
0	0x3ebe564b	0.3717521
1	0xbd385d12	-0.045010634
2	0x3ef8543b	0.48501763

sequential/batch_normalization_1/batchnorm/mul_1;sequential/batch_normalization_1/batchnorm/add_1;sequential/dense_2/MatMul;sequential/dense_2/BiasAdd f4 [3, 16]
0	0x3dc896c3	0.097943805
1	0xbe9d6b07	-0.30745718
2	0xbdcc3a26	-0.099720284
3	0xbeb442c5	-0.3520719
4	0x3effdc47	0.49972746
5	0xbec71f63	-0.38891134
6	0xbe9c44a9	-0.30521134
7	0xbeaefe92	-0.34178597
8	0xbe7a3233	-0.24433212
9	0xbec8a810	-0.39190722
10	0x3ea84ee0	0.32872677
11	0xbe78e061	-0.24304344
12	0x3e184e70	0.14873672
13	0x3dbe6ce7	0.09298115
14	0x3f07ee9d	0.5309847
15	0x3e81cc0b	0.25350985
16	0xbf04daa1	-0.518961
17	0xbe084204	-0.13306433
18	0xbd02292a	-0.03177754
19	0xbe448f6e	-0.19195339
20	0xbe05c987	-0.13065158
21	0x3e4f0c81	0.20219614
22	0x3e527426	0.2055212
23	0x3e71fe30	0.23632121
24	0x3e8e46fd	0.27788535
25	0xbe647b01	-0.22312547
26	0x3ee568c8	0.44806504
27	0xbdcc1ac8	-0.099660456
28	0xbe9cf4c7	-0.306555
29	0x3ea6298c	0.32453573
30	0xbc39477b	-0.011308546
31	0x3b8e3786	0.004340115
32	0x3eeea4f5	0.46610227
33	0x3e9139b8	0.28364348
34	0xbe84bd40	-0.25925636
35	0x3e7dbabb	0.24778263
36	0xbd49907a	-0.04921005
37	0xbf0360f4	-0.51319814
38	0x3edb5250	0.42836237
39	0xbd805fe7	-0.06268292
40	0x3a215c23	0.0006155392
41	0x3d1f50d7	0.038895454
42	0xbec471b0	-0.38367987
43	0xbf3fae78	-0.74875593
44	0x3b2392d1	0.0024959336
45	0xbdae902b	-0.085235916
46	0xbd49ba41	-0.04924989
47	0xbf0976cc	-0.53696895

sequential/dense/BiasAdd/ReadVariableOp f4 [32]
0	0x3d3737d6	0.044730984
1	0xbcf572b2	-0.029961918
2	0xbc8c6af7	-0.017140849
3	0x3d3ac1cc	0.045594975
4	0xbca76e75	-0.020438412
5	0xbd39c84d	-0.045357037
6	0xbc6638b2	-0.014051603
7	0xbd00bbbe	-0.031429045
8	0x3bd92c3c	0.0066275876
9	0xbcceb065	-0.025230596
10	0x3cd6850e	0.026186492
11	0xbd187d88	-0.03722909
12	0x3a9f6218	0.0012159972
13	0x3c14b508	0.009076364
14	0xbcb8cd10	-0.022558719
15	0x3c3db5cf	0.011578991
16	0xbd0565d3	-0.03256781
17	0xbd06c41d	-0.032901872
18	0x3d6d65df	0.05795848
19	0xbc23008b	-0.00994886
20	0x3ca7251e	0.020403441
21	0xbd0b125c	-0.033953056
22	0x3c33ff3e	0.010986147
23	0x3bc771f8	0.006086584
24	0x3cb7f0a7	0.02245362
25	0xbcce6323	-0.025193756
26	0xbc8b6033	-0.017013645
27	0xba8efb37	-0.0010908608
28	0xbcae31cd	-0.021263981
29	0x3daff9ca	0.08592565
30	0xbc51368e	-0.0127693545
31	0xbc847c35	-0.016172508

sequential/dense/MatMul f4 [32, 27]
0	0xbda068ee	-0.07832514
1	0x3ef2feb1	0.4745994
2	0x3e2e80d3	0.1704133
3	0xbc254a23	-0.010088476
4	0x3c9f2ed3	0.019431507
5	0x3d378e46	0.044813417
6	0xbe96fb03	-0.29488382
7	0x3ee8eac7	0.4549162
8	0xbcbb174a	-0.022838254
9	0x3d9fe6e0	0.07807708
10	0x3e5908a0	0.21194696
11	0xbe01fb99	-0.12693633
12	0x3e4ae1ff	0.19812773
13	0x3eb66c79	0.35629633
14	0xbec5046b	-0.38479933
15	0x3e24b2ea	0.16083875
16	0xbdf67586	-0.120341346
17	0xbea5c243	-0.32374772
18	0xbe529f8e	-0.20568678
19	0xbbc2dda7	-0.005946833
20	0x3e85a135	0.26099554
21	0x3ee951d6	0.45570248
22	0xbc91aa87	-0.01778151
23	0x3f0812fb	0.5315396
24	0xbe30704b	-0.17230336
25	0xbdf385db	-0.11890765
26	0x3e897086	0.2684366
27	0xbe6f4ebb	-0.23369877
28	0x3e905366	0.28188628
29	0x3c9e4b74	0.019323088
30	0x3e7620d5	0.24035962
31	0x3e765909	0.24057402
32	0x3e2b05c1	0.16701414
33	0x3ec520c9	0.38501576
34	0xbd961c7a	-0.0732965
35	0x3e5ed393	0.21760397
36	0xbd1e7cbb	-0.03869317
37	0xbec98aa0	-0.39363575
38	0x3d37f9dc	0.04491602
39	0xbd97d316	-0.07413308
40	0xbeccc0bd	-0.39990798
41	0xbde9fd90	-0.11425316
42	0xbe9ad643	-0.30241594
43	0x3ded65b6	0.115916654
44	0xbe63ce89	-0.22246756
45	0x3d8e191e	0.069383845
46	0x3e6f43ec	0.23365754
47	0xbe51bc26	-0.20481929
48	0x3d295933	0.041344833
49	0xbe167bf5	-0.14695723
50	0xbd96a8ba	-0.07356401
51	0x3cba7b0e	0.022763755
52	0xbe84889a	-0.2588547
53	0xbe1dfc1b	-0.15428202
54	0xbe005c0f	-0.12535118
55	0x3e0e591a	0.13901177
56	0xbf0060da	-0.50147784
57	0x3e13a954	0.14420062
58	0xbe842c53	-0.25815067
59	0xbeabd22b	-0.33558783
60	0xbe5c44f3	-0.21510677
61	0xbd9d12c8	-0.07669598
62	0xbd17a478	-0.037022084
63	0xbea97a7a	-0.33101255
64	0xbe4205ba	-0.18947497
65	0x3ea013c2	0.31265074
66	0x3eda0c6a	0.42587596
67	0x3a9e6444	0.0012084325
68	0xbd09748e	-0.03355842
69	0x3e3a7f3b	0.18212597
70	0x3d83f67f	0.064435
71	0xbf0800e4	-0.5312636
72	0xbe46c35d	-0.19410463
73	0xbee99b0e	-0.4562611
74	0x3eebbb81	0.46041492
75	0x3de3d100	0.11123848
76	0xbee36639	-0.44413927
77	0xbef48064	-0.47754204
78	0xbe5aa7c6	-0.21353063
79	0x3e7f003d	0.24902435
80	0x3cc66d28	0.024221972
81	0x3e375497	0.17903362
82	0xbc181ae0	-0.009283751
83	0x3e9df94f	0.3085427
84	0xbcc593a7	-0.024118258
85	0xbc867336	-0.016412359
86	0xbe6ffe22	-0.23436788
87	0xbe5e8d31	-0.21733548
88	0x3c99a682	0.018756155
89	0x3d947572	0.072489634
90	0x3e317d6a	0.17332998
91	0xbe82071c	-0.2539605
92	0xbd813838	-0.06309551
93	0xbc9211f6	-0.01783083
94	0xbef81b05	-0.48458114
95	0xbe57c6aa	-0.21071878
96	0xbc6e188f	-0.014532222
97	0xbe8d9356	-0.2765147
98	0xbd197fab	-0.03747527
99	0xbd04d79b	-0.03243218
100	0x3df0459b	0.11732026
101	0xbe3ab2a1	-0.18232204
102	0x3e6e0252	0.23243073
103	0xbcd67144	-0.026177056
104	0xbf164c72	-0.58710396
105	0xbe50fb1f	-0.20408295
106	0xbe69d632	-0.22835615
107	0xbd04b6e0	-0.032400966
108	0xbeb2d6de	-0.34929556
109	0xbe90dda3	-0.28294095
110	0x3ee2fcad	0.443334
111	0x3ebe6034	0.37182772
112	0x3eace8fa	0.33771497
113	0xbe866037	-0.2624528
114	0xbd389877	-0.045067277
115	0xbe49920b	-0.19684617
116	0x3ee969c9	0.4558852
117	0xbd8a4608	-0.06751639
118	0x3e0beab5	0.13663752
119	0xbee00150	-0.43751
120	0x3e49cbb8	0.19706619
121	0xbde281b6	-0.11059897
122	0x3d591cfd	0.05300616
123	0x3e4c3026	0.19940242
124	0xbead2cf3	-0.33823356
125	0xbd6de7b0	-0.058082283
126	0xbeb81f08	-0.35961175
127	0xbd3c41e8	-0.04596129
128	0x3cdfa8cb	0.027302166
129	0x3e0110e2	0.12604097
130	0x3b2721b9	0.0025502278
131	0xbd7b7a36	-0.061395846
132	0x3dd07ec8	0.101804316
133	0xbe7a7d57	-0.24461876
134	0xbee2b209	-0.44276455
135	0x3e2a17ed	0.1661069
136	0x3e74c394	0.23902732
137	0x3e4a143e	0.19734284
138	0xbe4e1ef6	-0.20128998
139	0xbd5fdcae	-0.054653816
140	0x3e066f3f	0.13128375
141	0x3df804bf	0.1211028
142	0x3ef1ce8f	0.47227904
143	0x3de55dc0	0.11199522
144	0xbe8a96c7	-0.2706816
145	0x3ec1e94d	0.37873307
146	0x3ed4e790	0.41582918
147	0x3ebba691	0.36650518
148	0xbe764656	-0.24050269
149	0xbd0eaa6b	-0.034830492
150	0x3e60c154	0.21948749
151	0x3e709daa	0.23497644
152	0xbc4e1393	-0.012577909
153	0x3dd465e8	0.103709996
154	0x3e117bc1	0.14207365
155	0xbeee9e10	-0.46604967
156	0xbe96d828	-0.2946179
157	0xbd924d8e	-0.07143699
158	0x3e8a15d7	0.26969787
159	0xbdb033a7	-0.08603602
160	0xbe429f86	-0.19006166
161	0x3eb116a2	0.3458758
162	0xbe806e9a	-0.25084382
163	0x3dce2821	0.10066248
164	0x3d0add29	0.03390232
165	0xbd865840	-0.06559801
166	0x3c4c7ae3	0.01248047
167	0x3eec9c23	0.46212873
168	0xbed57ea1	-0.41698173
169	0xbc84e02e	-0.016220178
170	0x3e112ddf	0.14177655
171	0x3efa9161	0.4893904
172	0xbe8a55d0	-0.27018595
173	0x3d71a00b	0.05899052
174	0x3eafdf32	0.34349972
175	0xbe28cf68	-0.16485369
176	0x3db86308	0.09003264
177	0xbe328a10	-0.17435479
178	0xbddbbfb9	-0.107299276
179	0xbe5a0069	-0.21289219
180	0xbea4a3b8	-0.32156157
181	0xbe379e4a	-0.17931476
182	0xbe73d720	-0.23812532
183	0xbee72127	-0.4514248
184	0x3e950169	0.29102638
185	0xbea3861c	-0.31938255
186	0x3eafa94d	0.34308854
187	0x3df794e4	0.120889455
188	0xbe4191f3	-0.18903331
189	0x3e913f57	0.28368637
190	0xbdde0cec	-0.108423084
191	0xbea1710a	-0.31531554
192	0x3f111f4f	0.566884
193	0xbd43e29e	-0.04782354
194	0x3def7761	0.116926916
195	0xbebee98b	-0.37287554
196	0xbe28ff0b	-0.16503541
197	0x3e29d764	0.16586071
198	0xbe8bb3c8	-0.272856
199	0xbd878327	-0.06616812
200	0x3d453f3a	0.048156
201	0x3ee05128	0.43811917
202	0xbe8cd3b3	-0.27505264
203	0xbe5d3240	-0.216012
204	0xbe357d61	-0.1772361
205	0x3e8d8bfc	0.27645862
206	0x3eadabbf	0.33920094
207	0x3d088636	0.03333112
208	0xbeab6b35	-0.3348023
209	0xbeab326d	-0.3343691
210	0xbec36419	-0.38162306
211	0x3e000a28	0.12503874
212	0x3e8a7e54	0.27049506
213	0x3dc00e7c	0.09377763
214	0xbed8c14a	-0.42334968
215	0xbe407fe2	-0.18798783
216	0xbea461f1	-0.32105973
217	0x3f044c46	0.51678884
218	0x3e1e8dd5	0.15483792
219	0xbe14bd4f	-0.1452534
220	0x3efa28d7	0.48859283
221	0x3de60a70	0.112324595
222	0x3d86248b	0.06549939
223	0xbd1063c0	-0.03525138
224	0xbd3bd747	-0.0458596
225	0xbd97e547	-0.07416778
226	0xbec7dfbe	-0.3903789
227	0x3f01ae9e	0.5065707
228	0x3dd04b20	0.10170579
229	0x3cc89d58	0.02448909
230	0xbe9f394d	-0.31098405
231	0xbe48e62c	-0.19619054
232	0x3e95fc92	0.29294258
233	0xbea8e99d	-0.32990733
234	0x3dac64b1	0.08417643
235	0xbe861949	-0.26191166
236	0x3d940e91	0.07229341
237	0xbeaf3887	-0.34222814
238	0x3e900057	0.2812526
239	0x3de1bf97	0.11022871
240	0x3b9b41b0	0.004738055
241	0x3dfb1569	0.12259943
242	0x3e413995	0.18869622
243	0xbe035a57	-0.1282743
244	0x3e6a68a0	0.22891474
245	0x3ef10eac	0.47081506
246	0xbdefa88b	-0.11702069
247	0x3de5ff87	0.112303786
248	0x3e82caa2	0.25545222
249	0x3e4aae10	0.19792962
250	0xbec3dcd4	-0.38254416
251	0xbe955b41	-0.29171184
252	0xbecfad54	-0.40561926
253	0xbeb78322	-0.35842234
254	0x3e39c44c	0.18141288
255	0xbe39d022	-0.18145803
