tflite_micro_model.tflite (tflite, 12000 bytes, 4 tensors)

sequential_15/batch_normalization_44/batchnorm/mul_1;StatefulPartitionedCall/StatefulPartitionedCall/sequential_15/batch_normalization_44/batchnorm/mul_1;sequential_15/batch_normalization_44/batchnorm/add_1;StatefulPartitionedCall/StatefulPartitionedCall/sequential_15/batch_normalization_44/batchnorm/add_1;sequential_15/dense_60/MatMul;StatefulPartitionedCall/StatefulPartitionedCall/sequential_15/dense_60/MatMul;sequential_15/dense_60/BiasAdd;StatefulPartitionedCall/StatefulPartitionedCall/sequential_15/dense_60/BiasAdd i1 [3, 16] scale=0.0071242247 zero_point=0
0.17810562 0.1994783 -0.23509942 0.39183235 -0.3205901 -0.25647208 0.23509942 -0.45595038
0.9047765 0.12823604 -0.1994783 -0.09973915 0.17810562 -0.24934787 0.33483857 -0.09973915
0.06411802 0.45595038 -0.35621125 -0.29209322 0.27072054 0.38470814 0.7836647 0.27072054
0.854907 -0.4060808 0.24934787 -0.014248449 -0.21372674 -0.18522984 0.07124224 0.15673295
-0.3989566 0.14248449 0.14960872 -0.0071242247 -0.4060808 0.42032924 0.20660251 -0.22797519
0.6269318 0.34196278 -0.20660251 -0.45595038 0.48444727 0.26359633 -0.22797519 0.5200684
00000000: 191c df37 d3dc 21c0 7f12 e4f2 19dd 2ff2
00000010: 0940 ced7 2636 6e26 78c7 23fe e2e6 0a16
00000020: c814 15ff c73b 1de0 5830 e3c0 4425 e049

sequential_15/batch_normalization_43/batchnorm/mul_1;StatefulPartitionedCall/StatefulPartitionedCall/sequential_15/batch_normalization_43/batchnorm/mul_1;sequential_15/batch_normalization_43/batchnorm/add_1;StatefulPartitionedCall/StatefulPartitionedCall/sequential_15/batch_normalization_43/batchnorm/add_1;sequential_15/dense_59/MatMul;StatefulPartitionedCall/StatefulPartitionedCall/sequential_15/dense_59/MatMul;sequential_15/dense_59/Relu;StatefulPartitionedCall/StatefulPartitionedCall/sequential_15/dense_59/Relu;sequential_15/dense_59/BiasAdd;StatefulPartitionedCall/StatefulPartitionedCall/sequential_15/dense_59/BiasAdd i1 [16, 32] scale=0.0051090587 zero_point=0
-0.030654352 0.47514245 -0.48536056 -0.25545293 -0.020436235 0.4189428 -0.086853996 -0.025545293
-0.42405188 0.2094714 0.04087247 -0.5517783 -0.16859894 0.34230694 -0.21458046 0.12772647
-0.015327176 -0.37296128 -0.38828847 -0.20436235 -0.14305365 0.08174494 0.4598153 -0.38828847
0.260562 -0.260562 0.37296128 0.59775984 -0.16859894 -0.1839261 -0.4598153 0.025545293
0.051090587 0.3576341 -0.08174494 0.09707212 0.4189428 -0.37807035 0.16859894 0.33719787
-0.21458046 0.24012576 0.17370799 -0.12261741 -0.17370799 0.2503439 0.35252506 0.071526825
-0.16859894 0.25545293 0.025545293 0.030654352 0.24012576 -0.09707212 0.086853996 0.22990765
-0.061308704 0.32697976 0.035763413 0.16348988 0.18903518 0.025545293 0.22990765 -0.071526825
-0.0051090587 -0.521124 0.0 -0.102181174 0.2350167 0.21968952 0.33208883 0.31165257
0.3933975 -0.36274317 0.36274317 -0.16859894 0.31165257 0.19925329 -0.112399295 -0.20436235
-0.38828847 0.38828847 -0.4087247 -0.5568874 0.3678522 0.15838082 0.051090587 0.0051090587
-0.09707212 0.48025152 0.31676164 -0.07663588 0.44959718 -0.071526825 0.26567104 0.56710553
-0.2503439 -0.10729023 -0.33719787 0.025545293 0.19925329 -0.035763413 0.20436235 -0.11750835
-0.056199647 0.16859894 -0.25545293 0.25545293 0.36274317 0.27588916 0.10729023 0.35252506
-0.37296128 0.07663588 0.06641776 0.2350167 -0.061308704 -0.030654352 -0.24523482 -0.0051090587
-0.04087247 0.086853996 0.6335233 0.2503439 -0.112399295 -0.051090587 -0.16348988 -0.37807035
-0.42405188 0.30654353 0.010218117 0.53645116 -0.5824327 -0.086853996 0.21968952 -0.32697976
0.0 0.19925329 -0.22479859 0.42405188 -0.2503439 -0.59775984 0.22479859 0.48536056
-0.3831794 0.1839261 0.0 0.07663588 0.11750835 0.31165257 0.11750835 0.071526825
0.06641776 -0.19414423 -0.12772647 0.2094714 -0.49046963 -0.35252506 -0.06641776 0.29632542
-0.26567104 -0.15327176 0.112399295 -0.33719787 0.42405188 -0.526233 -0.2094714 0.0
-0.4955787 0.3576341 0.31165257 0.29632542 -0.11750835 -0.045981526 0.36274317 -0.5313421
0.42916092 -0.21968952 0.42916092 0.5057968 -0.41383377 -0.4700334 -0.3831794 -0.10729023
-0.16348988 -0.4087247 -0.3576341 0.33208883 0.09707212 -0.112399295 0.2094714 0.2350167
0.12772647 -0.035763413 0.19925329 -0.11750835 -0.025545293 -0.061308704 -0.102181174 -0.2350167
0.086853996 0.0051090587 -0.17881705 0.14305365 -0.051090587 -0.20436235 0.045981526 0.08174494
0.2094714 0.14816271 -0.21968952 -0.38828847 -0.27588916 -0.056199647 -0.030654352 -0.09707212
-0.045981526 -0.112399295 -0.21458046 0.045981526 -0.035763413 -0.34230694 -0.29632542 0.15327176
-0.04087247 -0.056199647 0.2350167 0.27588916 0.43427 -0.4444881 -0.44959718 0.12772647
-0.10729023 0.19414423 -0.051090587 0.14816271 0.020436235 -0.06641776 0.35252506 0.13283552
0.3933975 -0.10729023 0.5568874 -0.27588916 -0.3576341 0.102181174 -0.07663588 0.061308704
-0.27078012 0.086853996 0.47514245 0.30143446 -0.4598153 -0.21458046 -0.5824327 -0.045981526
00000000: fa5d a1ce fc52 effb ad29 0894 df43 d619
00000010: fdb7 b4d8 e410 5ab4 33cd 4975 dfdc a605
00000020: 0a46 f013 52b6 2142 d62f 22e8 de31 450e
00000030: df32 0506 2fed 112d f440 0720 2505 2df2
00000040: ff9a 00ec 2e2b 413d 4db9 47df 3d27 ead8
00000050: b44c b093 481f 0a01 ed5e 3ef1 58f2 346f
00000060: cfeb be05 27f9 28e9 f521 ce32 4736 1545
00000070: b70f 0d2e f4fa d0ff f811 7c31 eaf6 e0b6
00000080: ad3c 0269 8eef 2bc0 0027 d453 cf8b 2c5f
00000090: b524 000f 173d 170e 0dda e729 a0bb f33a
000000a0: cce2 16be 5399 d700 9f46 3d3a e9f7 4798
000000b0: 54d5 5463 afa4 b5eb e0b0 ba41 13ea 292e
000000c0: 19f9 27e9 fbf4 ecd2 1101 dd1c f6d8 0910
000000d0: 291d d5b4 caf5 faed f7ea d609 f9bd c61e
000000e0: f8f5 2e36 55a9 a819 eb26 f61d 04f3 451a
000000f0: 4deb 6dca ba14 f10c cb11 5d3b a6d6 8ef7

sequential_15/batch_normalization_42/batchnorm/mul_1;StatefulPartitionedCall/StatefulPartitionedCall/sequential_15/batch_normalization_42/batchnorm/mul_1;sequential_15/batch_normalization_42/batchnorm/add_1;StatefulPartitionedCall/StatefulPartitionedCall/sequential_15/batch_normalization_42/batchnorm/add_1;sequential_15/dense_58/MatMul;StatefulPartitionedCall/StatefulPartitionedCall/sequential_15/dense_58/MatMul;sequential_15/dense_58/Relu;StatefulPartitionedCall/StatefulPartitionedCall/sequential_15/dense_58/Relu;sequential_15/dense_58/BiasAdd;StatefulPartitionedCall/StatefulPartitionedCall/sequential_15/dense_58/BiasAdd i1 [32, 64] scale=0.011137816 zero_point=0
-0.23389414 0.08910253 -0.2895832 -0.24503195 0.2784454 -0.08910253 0.3341345 0.8910253
0.05568908 0.022275632 -0.05568908 -0.6905446 -0.077964716 0.044551264 -0.25616977 -0.32299668
0.15592943 0.08910253 -0.066826895 0.40096137 0.3452723 -0.044551264 0.43437484 0.15592943
-0.5680286 -0.25616977 0.20048068 0.40096137 -0.50120175 0.24503195 -0.05568908 -0.08910253
0.13365379 0.13365379 0.022275632 -0.23389414 -0.12251598 -0.22275633 0.6125799 -0.16706724
0.044551264 0.37868574 -0.05568908 -0.31185886 0.3452723 -0.08910253 0.41209918 0.12251598
0.077964716 0.066826895 -0.10024034 -0.40096137 -0.011137816 -0.066826895 0.033413447 -0.08910253
-0.31185886 0.18934287 0.10024034 0.05568908 0.066826895 0.17820506 0.15592943 0.10024034
-0.12251598 -0.044551264 -0.20048068 0.21161851 0.077964716 -0.05568908 0.21161851 1.0135412
0.43437484 0.32299668 0.066826895 -0.4789261 0.044551264 -0.13365379 0.15592943 0.5680286
-0.3452723 -0.10024034 -0.1447916 -0.25616977 -0.066826895 0.05568908 0.033413447 -0.044551264
0.1447916 -0.45665047 0.71282023 -0.31185886 0.26730758 0.5568908 -0.033413447 -0.16706724
0.17820506 0.23389414 0.20048068 0.41209918 -0.022275632 -0.15592943 -0.033413447 -0.24503195
-0.044551264 -0.077964716 0.45665047 0.16706724 -0.077964716 0.3341345 0.13365379 -0.2784454
0.18934287 -0.15592943 -0.5568908 0.21161851 0.011137816 0.23389414 0.17820506 0.08910253
0.30072105 -0.12251598 0.21161851 -0.44551265 0.20048068 -0.15592943 -0.3452723 -0.066826895
-0.13365379 -0.12251598 0.38982356 0.3341345 0.42323703 0.5568908 0.22275633 0.13365379
0.42323703 0.24503195 0.05568908 0.2784454 0.41209918 0.17820506 -0.066826895 -0.17820506
0.30072105 0.45665047 0.066826895 -0.40096137 -0.22275633 -0.10024034 -0.31185886 0.35641012
0.53461516 0.24503195 -0.23389414 0.23389414 -0.25616977 -0.15592943 0.5234774 -0.11137816
-0.59030426 0.7462337 0.10024034 0.3452723 0.033413447 0.37868574 -0.35641012 0.25616977
0.23389414 0.2895832 -0.033413447 0.31185886 0.16706724 0.31185886 -0.36754793 -0.077964716
-0.46778828 0.10024034 -0.20048068 0.5234774 0.022275632 0.044551264 0.41209918 -0.022275632
0.53461516 -0.4900639 -0.38982356 0.45665047 -0.15592943 0.077964716 0.011137816 -0.2784454
-0.3452723 0.43437484 -0.2784454 0.30072105 -0.20048068 -0.21161851 -0.22275633 0.37868574
-0.30072105 -0.45665047 0.17820506 1.3588135 0.17820506 -0.22275633 -0.044551264 -0.2895832
0.15592943 0.5680286 -0.16706724 0.044551264 0.4900639 0.50120175 -0.22275633 0.45665047
0.1447916 0.6014421 -0.6125799 0.46778828 -0.38982356 -0.32299668 -0.20048068 -0.08910253
0.87988746 0.71282023 -0.2784454 0.17820506 0.033413447 -0.10024034 0.17820506 -0.05568908
-0.066826895 -0.42323703 -0.011137816 -0.2784454 0.50120175 0.05568908 0.12251598 -0.53461516
0.11137816 0.40096137 -0.4900639 -0.32299668 0.38982356 -0.4900639 0.36754793 -0.011137816
-0.022275632 0.25616977 0.17820506 0.08910253 -0.16706724 0.24503195 0.0 -0.26730758
00000000: eb08 e6ea 19f8 1e50 0502 fbc2 f904 e9e3
00000010: 0e08 fa24 1ffc 270e cde9 1224 d316 fbf8
00000020: 0c0c 02eb f5ec 37f1 0422 fbe4 1ff8 250b
00000030: 0706 f7dc fffa 03f8 e411 0905 0610 0e09
00000040: f5fc ee13 07fb 135b 271d 06d5 04f4 0e33
00000050: e1f7 f3e9 fa05 03fc 0dd7 40e4 1832 fdf1
00000060: 1015 1225 fef2 fdea fcf9 290f f91e 0ce7
00000070: 11f2 ce13 0115 1008 1bf5 13d8 12f2 e1fa
00000080: f4f5 231e 2632 140c 2616 0519 2510 faf0
00000090: 1b29 06dc ecf7 e420 3016 eb15 e9f2 2ff6
000000a0: cb43 091f 0322 e017 151a fd1c 0f1c dff9
000000b0: d609 ee2f 0204 25fe 30d4 dd29 f207 01e7
000000c0: e127 e71b eeed ec22 e5d7 107a 10ec fce6
000000d0: 0e33 f104 2c2d ec29 0d36 c92a dde3 eef8
000000e0: 4f40 e710 03f7 10fb fada ffe7 2d05 0bd0
000000f0: 0a24 d4e3 23d4 21ff fe17 1008 f116 00e8

sequential_15/dense_57/MatMul;StatefulPartitionedCall/StatefulPartitionedCall/sequential_15/dense_57/MatMul i1 [64, 27] scale=0.00419384 zero_point=0
-0.2516304 0.37325177 0.1258152 -0.10065216 0.05032608 0.0 0.13000904 0.06710144
-0.10065216 -0.29776263 -0.39422098 0.13000904 0.13000904 0.0 0.314538 -0.33131337
0.09226448 0.13839673 0.2809873 -0.2725996 -0.26001808 0.29776263 0.113233685 -0.16355976
0.11742752 -0.34808874 -0.06710144 0.3355072 0.2306612 0.26840577 -0.05451992 0.13000904
-0.02935688 0.07968296 0.32711953 -0.11742752 -0.05032608 -0.17194745 0.28937498 0.2809873
0.08807064 -0.3564764 0.05871376 0.22646737 0.27679345 -0.00838768 0.09645832 -0.2725996
-0.113233685 0.20130432 -0.36067024 -0.16355976 -0.2306612 -0.1677536 0.31873184 0.13000904
0.0838768 -0.21388584 0.03355072 0.05032608 0.0838768 -0.31034416 -0.3438949 0.0838768
-0.11742752 -0.03355072 0.0629076 -0.20549816 0.24324273 0.25582424 -0.4906793 -0.21388584
0.01677536 -0.29776263 0.05871376 0.314538 -0.19711049 0.17194745 0.15097824 0.09226448
0.15936592 0.209692 -0.02935688 -0.13839673 0.07968296 -0.13000904 0.01677536 -0.19711049
0.22227353 -0.2809873 0.104846 0.02516304 -0.20549816 0.22646737 0.071295284 -0.22646737
-0.1887228 0.09226448 0.28937498 -0.17614128 -0.41519016 0.18033512 0.23904888 0.2725996
-0.02516304 -0.15936592 0.10065216 -0.02516304 0.31034416 -0.19291665 -0.104846 -0.30615032
0.0209692 -0.209692 -0.10065216 0.08807064 0.08807064 0.104846 -0.0419384 -0.04613224
-0.113233685 0.0629076 0.02935688 -0.35228255 -0.40680248 0.46551624 0.05871376 -0.01258152
-0.09226448 -0.04613224 -0.31034416 0.30195647 0.0838768 0.28518113 -0.1677536 -0.1677536
0.0419384 0.01677536 0.14678441 0.00838768 0.314538 -0.07968296 -0.12162136 0.25582424
0.21807969 0.11742752 -0.21807969 0.04613224 0.03774456 -0.12162136 0.50745463 0.22227353
0.22227353 -0.02516304 -0.15517208 -0.01677536 0.2809873 -0.113233685 -0.19711049 -0.25582424
-0.09645832 -0.20549816 0.1258152 -0.05032608 -0.31034416 -0.26421192 0.3858333 -0.01258152
0.2725996 0.071295284 0.26001808 -0.18452896 -0.05451992 0.03774456 0.00419384 -0.00838768
-0.21807969 0.27679345 -0.41099632 0.15936592 0.01258152 0.26001808 -0.09226448 0.03774456
-0.23904888 -0.0419384 0.14678441 -0.22646737 -0.25582424 0.22227353 -0.27679345 0.17614128
0.1887228 0.01677536 -0.05032608 -0.07548912 0.0419384 -0.3564764 -0.09645832 0.01258152
0.209692 -0.05871376 0.16355976 0.314538 -0.14678441 -0.02516304 -0.26001808 -0.23904888
0.30195647 -0.13839673 -0.2516304 0.3438949 0.07548912 -0.22227353 0.1258152 -0.09226448
-0.22227353 0.21388584 -0.15936592 0.05871376 0.28937498 0.03355072 -0.15936592 -0.04613224
0.26421192 -0.00419384 0.15936592 -0.29356882 -0.04613224 0.0209692 0.1677536 -0.113233685
0.33970106 -0.20130432 -0.17194745 -0.2516304 0.0 0.0629076 -0.1677536 0.11742752
-0.071295284 0.3438949 0.01258152 0.32711953 0.29776263 -0.24743657 0.47390392 0.23904888
-0.1677536 -0.08807064 0.13420288 0.07548912 -0.15097824 0.03774456 -0.20130432 -0.02516304
00000000: c459 1ee8 0c00 1f10 e8b9 a21f 1f00 4bb1
00000010: 1621 43bf c247 1bd9 1cad f050 3740 f31f
00000020: f913 4ee4 f4d7 4543 15ab 0e36 42fe 17bf
00000030: e530 aad9 c9d8 4c1f 14cd 080c 14b6 ae14
00000040: e4f8 0fcf 3a3d 8bcd 04b9 0e4b d129 2416
00000050: 2632 f9df 13e1 04d1 35bd 1906 cf36 11ca
00000060: d316 45d6 9d2b 3941 fada 18fa 4ad2 e7b7
00000070: 05ce e815 1519 f6f5 e50f 07ac 9f6f 0efd
00000080: eaf5 b648 1444 d8d8 0a04 2302 4bed e33d
00000090: 341c cc0b 09e3 7935 35fa dbfc 43e5 d1c3
000000a0: e9cf 1ef4 b6c1 5cfd 4111 3ed4 f309 01fe
000000b0: cc42 9e26 033e ea09 c7f6 23ca c335 be2a
000000c0: 2d04 f4ee 0aab e903 32f2 274b ddfa c2c7
000000d0: 48df c452 12cb 1eea cb33 da0e 4508 daf5
000000e0: 3fff 26ba f505 28e5 51d0 d7c4 000f d81c
000000f0: ef52 034e 47c5 7139 d8eb 2012 dc09 d0fa
