tflite_micro_model.tflite (tflite, 6764 bytes, 5 tensors)

sequential/dense_1/MatMul;sequential/dense_1/Relu;sequential/dense_1/BiasAdd f2 [16]
00000000: 89b8 8eb5 fc36 c8ba a0c1 813a 93be 7839
00000010: 8c40 fd34 bf38 77bf 3b3a e633 3735 4034
-0.567 -0.3472 0.4365 -0.8477 -2.812 0.813 -1.644 0.6836
2.273 0.3118 0.5933 -1.866 0.779 0.2468 0.326 0.2656

sequential/batch_normalization/batchnorm/mul_1;sequential/batch_normalization/batchnorm/add_1;sequential/dense_1/MatMul;sequential/dense_1/Relu;sequential/dense_1/BiasAdd f2 [16, 32]
00000000: c1b4 6e3b 5cb4 ba3c 83b9 1729 4839 4239
00000010: bc2a d434 8ab8 0d33 6838 27b8 a9b3 6239
00000020: 2eb6 53b8 bf33 1cb1 44b8 1128 6930 09b6
00000030: 5f31 ee35 de35 602c 61bc 4837 5fb5 1ab6
00000040: 8bb0 2638 b4b1 689c 8530 fc9c 3132 4b39
00000050: 68ad 7337 01b2 abb6 cd31 38b5 6a34 6fbb
00000060: 34b2 433a 1438 6cb3 95b0 3035 3633 2c38
00000070: ad32 58b6 14ad 362f c6b6 73ad fc2b 2fb0
00000080: 762e 202f a9a6 c2b8 522c 002a 65bb a8bb
00000090: 4da7 04b8 cd31 9333 ef33 922d e82a 3138
000000a0: 09b0 7437 90b8 2a31 0536 2b3c b4b1 1237
000000b0: cab0 2834 84b4 ebac 37b8 9630 acb1 58b1
000000c0: c72a 37b5 65a9 dbb6 e439 bf2f 5636 85b7
000000d0: ceb0 4739 6c34 9db0 3a38 02a9 e2b6 deb9
000000e0: e139 38b7 b7b1 5f38 8eb2 e137 1ea4 ea33
000000f0: af38 cdb6 d8b5 a433 d1b8 da37 b9b7 4f35
00000100: d3ae eeb4 6436 ad3a ca31 0d2f 50b2 b43e
00000110: 0038 00b6 f235 ea9b 0936 7e34 1cb6 4339
00000120: 2935 5638 66b7 6331 d72c 6bb3 1e31 3f39
00000130: 782f c638 2f38 1a32 db2e 1a33 d1aa a4b7
00000140: ee25 ac26 c7b0 fd38 97b6 0fb7 3bb1 3c31
00000150: e9b8 a9b9 7934 0632 66ad e1a9 f8b0 e437
00000160: e1b6 8f2d 7db3 6a2d 27b7 a839 8c2d c4b2
00000170: 32b6 5ab8 6d36 9234 3239 81b5 df2f 9634
00000180: 6930 efbc 3930 8aa8 96b0 4cae a0b6 83b2
00000190: ef32 4339 c039 f6b9 f632 c339 60b4 4c35
000001a0: f02f 8d31 713a 9731 8139 3aa4 8533 33b5
000001b0: 3eb6 993b aa31 25ac 0fbb c39b 3438 1fb1
000001c0: 552d 40b9 7db0 84a3 85b7 372e 6a29 05b5
000001d0: 2f30 02b2 b739 3db4 8235 ba2a a230 f5b7
000001e0: 0437 2830 1fad 14b8 01bb 143c feae 9cb7
000001f0: 09b1 e9b8 35b1 66b5 9c36 dc34 6d36 38ac
-0.297 0.9287 -0.2725 1.182 -0.689 0.03976 0.66 0.657
0.0526 0.3018 -0.5674 0.2203 0.551 -0.519 -0.2394 0.673
-0.3862 -0.5405 0.2421 -0.1597 -0.533 0.03177 0.1378 -0.3772
0.1678 0.3706 0.3667 0.06836 -1.095 0.455 -0.3357 -0.3813
-0.142 0.5186 -0.1782 -0.004303 0.1412 -0.004868 0.1935 0.6616
-0.0845 0.4656 -0.1876 -0.4167 0.1813 -0.3262 0.276 -0.929
-0.1938 0.7827 0.51 -0.2319 -0.1432 0.3242 0.2253 0.5215
0.2086 -0.3965 -0.07935 0.1127 -0.4233 -0.08514 0.06238 -0.1307
0.10095 0.1113 -0.02602 -0.5947 0.0675 0.04688 -0.9243 -0.957
-0.02852 -0.502 0.1813 0.2367 0.2479 0.08704 0.05396 0.524
-0.1261 0.4658 -0.5703 0.1614 0.3762 1.042 -0.1782 0.442
-0.1497 0.2598 -0.2822 -0.07684 -0.527 0.1433 -0.1772 -0.167
0.05295 -0.326 -0.04214 -0.4285 0.7363 0.12103 0.396 -0.47
-0.1501 0.6597 0.2764 -0.1442 0.5283 -0.03912 -0.4302 -0.7334
0.735 -0.4512 -0.1786 0.5464 -0.2048 0.4924 -0.01608 0.2473
0.5854 -0.425 -0.3652 0.2388 -0.602 0.4907 -0.4827 0.3318
-0.1066 -0.308 0.3994 0.8345 0.1809 0.11017 -0.1973 1.676
0.5 -0.375 0.3716 -0.003864 0.3772 0.2808 -0.3818 0.6577
0.3225 0.542 -0.4624 0.1683 0.0756 -0.2318 0.1599 0.656
0.1167 0.5967 0.523 0.1907 0.1071 0.2219 -0.05325 -0.4775
0.02316 0.02606 -0.1493 0.6235 -0.4119 -0.4412 -0.1635 0.1636
-0.614 -0.7075 0.2795 0.1882 -0.08435 -0.04593 -0.1553 0.4932
-0.43 0.08685 -0.234 0.0846 -0.447 0.707 0.0867 -0.2114
-0.3872 -0.544 0.4016 0.2856 0.6494 -0.344 0.123 0.2866
0.1378 -1.233 0.132 -0.03546 -0.1433 -0.0984 -0.414 -0.2035
0.2167 0.6577 0.7188 -0.745 0.2175 0.72 -0.2734 0.331
0.124 0.1735 0.805 0.1747 0.688 -0.01651 0.235 -0.325
-0.3901 0.9497 0.177 -0.06476 -0.8823 -0.00379 0.5254 -0.16
0.0833 -0.6562 -0.1403 -0.01468 -0.47 0.0971 0.0423 -0.3137
0.1307 -0.1877 0.7144 -0.265 0.3442 0.05255 0.1448 -0.4973
0.4385 0.1299 -0.08 -0.51 -0.8755 1.02 -0.10925 -0.4756
-0.1573 -0.614 -0.1627 -0.3374 0.413 0.3037 0.4016 -0.0659

sequential/batch_normalization_1/batchnorm/mul_1;sequential/batch_normalization_1/batchnorm/add_1;sequential/dense_2/MatMul;sequential/dense_2/BiasAdd f2 [3, 16]
00000000: 452e ebb4 62ae a2b5 ff37 39b6 e2b4 78b5
00000010: d2b3 45b6 4235 c7b3 c230 f32d 3f38 0e34
00000020: 27b8 42b0 11a8 24b2 2eb0 7832 9432 9033
00000030: 7234 24b3 2b37 61ae e8b4 3135 caa1 721c
00000040: 7537 8a34 26b4 ee33 4daa 1bb8 db36 03ac
00000050: 0b11 fb28 24b6 fdb9 1d19 75ad 4eaa 4cb8
0.09796 -0.3074 -0.09973 -0.352 0.4998 -0.389 -0.3052 -0.3418
-0.2444 -0.3918 0.3286 -0.243 0.1487 0.09296 0.531 0.2534
-0.519 -0.133 -0.03177 -0.1919 -0.1306 0.2021 0.2056 0.2363
0.2778 -0.2231 0.448 -0.0997 -0.3066 0.3245 -0.01131 0.00434
0.466 0.2837 -0.2593 0.2478 -0.04922 -0.513 0.4285 -0.0627
0.0006156 0.0389 -0.3838 -0.7485 0.002497 -0.08527 -0.04926 -0.537

sequential/dense/BiasAdd/ReadVariableOp f2 [32]
00000000: ba29 aca7 63a4 d629 3ba5 cea9 32a3 06a8
00000010: c91e 76a6 b426 c4a8 fb14 a620 c6a5 ee21
00000020: 2ba8 36a8 6b2b 18a1 3925 59a8 a021 3c1e
00000030: c025 73a6 5ba4 7894 72a5 802d 8aa2 24a4
0.04474 -0.02997 -0.01714 0.0456 -0.02043 -0.04535 -0.01405 -0.03143
0.006626 -0.02524 0.02618 -0.03723 0.001216 0.00908 -0.02255 0.01158
-0.03256 -0.0329 0.05795 -0.00995 0.0204 -0.03397 0.01099 0.00609
0.02246 -0.02519 -0.01701 -0.001091 -0.02127 0.08594 -0.01277 -0.01617

sequential/dense/MatMul f2 [32, 27]
00000000: 03ad 9837 7431 2aa1 f924 bc29 b8b4 4737
00000010: d9a5 ff2c c832 10b0 5732 b335 28b6 2631
00000020: b4af 2eb5 95b2 179e 2d34 4b37 8da4 4138
00000030: 84b1 9caf 4c34 7ab3 8334 f224 b133 b333
00000040: 5831 2936 b1ac f732 f4a8 4cb6 c029 bfac
00000050: 66b6 50af d7b4 6b2f 1eb3 712c 7a33 8eb2
00000060: 4b29 b4b0 b5ac d425 24b4 f0b0 03b0 7330
00000070: 03b8 9d30 21b4 5fb5 e2b2 e9ac bda8 4cb5
00000080: 10b2 0135 d036 f314 4ca8 d431 202c 40b8
00000090: 36b2 4db7 5e37 1f2f 1bb7 a4b7 d5b2 f833
000000a0: 3326 bb31 c1a0 f034 2da6 34a4 80b3 f4b2
000000b0: cd24 a42c 8c31 10b4 0aac 91a4 c1b7 beb2
000000c0: 71a3 6db4 cca8 27a8 822f d6b1 7033 b4a6
000000d0: b2b8 88b2 4fb3 26a8 97b5 87b4 1837 f335
000000e0: 6735 33b4 c5a9 4db2 4b37 52ac 5f30 00b7
000000f0: 4e32 14af c92a 6232 69b5 6fab c1b5 e2a9
00000100: fd26 0930 3919 dcab 842e d4b3 16b7 5131
00000110: a633 5132 71b2 ffaa 3330 c02f 8e37 2b2f
00000120: 55b4 0f36 a736 dd35 b2b3 75a8 0633 8533
00000130: 71a2 a32e 8c30 75b7 b7b4 92ac 5134 82ad
00000140: 15b2 8935 03b4 712e 5728 33ac 6422 6537
00000150: acb6 27a4 8930 d537 53b4 8d2b 7f35 46b1
00000160: c32d 94b1 deae d0b2 25b5 bdb1 9fb3 39b7
00000170: a834 1cb5 7d35 bd2f 0db2 8a34 f0ae 0cb5
00000180: 8938 1faa 7c2f f7b5 48b1 4f31 5eb4 3cac
00000190: 2a2a 0337 67b4 eab2 acb1 6c34 6d35 4428
000001a0: 5bb5 5ab5 1bb6 0030 5434 002e c6b6 04b2
000001b0: 23b5 2238 f430 a6b0 d137 302f 312c 83a8
000001c0: dfa9 bfac 3fb6 0d38 822e 4526 fab4 47b2
000001d0: b034 47b5 632d 31b4 a02c 7ab5 8034 0e2f
000001e0: da1c d92f 0a32 1bb0 5333 8837 7daf 302f
000001f0: 1634 5532 1fb6 abb4 7db6 bcb5 ce31 cfb1
-0.0783 0.4746 0.1704 -0.010086 0.01942 0.0448 -0.295 0.4548
-0.02284 0.07806 0.2119 -0.127 0.1981 0.3562 -0.3848 0.1609
-0.12036 -0.3237 -0.2057 -0.005947 0.261 0.4558 -0.01778 0.5317
-0.1724 -0.1189 0.2686 -0.2336 0.282 0.01932 0.2404 0.2406
0.167 0.385 -0.0733 0.2177 -0.0387 -0.3936 0.04492 -0.07416
-0.4 -0.11426 -0.3025 0.1159 -0.2224 0.0694 0.2336 -0.2048
0.04135 -0.147 -0.07355 0.02277 -0.2588 -0.1543 -0.1254 0.139
-0.5015 0.1442 -0.258 -0.3357 -0.2151 -0.0767 -0.03702 -0.331
-0.1895 0.3127 0.4258 0.001208 -0.03357 0.1821 0.06445 -0.5312
-0.1941 -0.4563 0.4604 0.11127 -0.444 -0.4775 -0.2135 0.249
0.02422 0.1791 -0.009285 0.3086 -0.02412 -0.01642 -0.2344 -0.2173
0.01875 0.0725 0.1733 -0.254 -0.0631 -0.01784 -0.4846 -0.2107
-0.014534 -0.2766 -0.03748 -0.03244 0.1173 -0.1824 0.2324 -0.02618
-0.587 -0.2041 -0.2284 -0.0324 -0.3494 -0.283 0.4434 0.3718
0.3376 -0.2625 -0.04507 -0.1969 0.4558 -0.0675 0.1366 -0.4375
0.197 -0.1106 0.053 0.1995 -0.3381 -0.05807 -0.3596 -0.04596
0.0273 0.1261 0.00255 -0.0614 0.1018 -0.2446 -0.4429 0.1661
0.239 0.1974 -0.2013 -0.05466 0.1312 0.1211 0.4722 0.112
-0.2708 0.3787 0.4158 0.3665 -0.2405 -0.03482 0.2195 0.235
-0.01258 0.1037 0.1421 -0.466 -0.2947 -0.0714 0.2698 -0.08606
-0.1901 0.346 -0.2507 0.10065 0.0339 -0.0656 0.01248 0.4622
-0.417 -0.01622 0.1417 0.4895 -0.2703 0.059 0.3435 -0.1648
0.09 -0.1743 -0.1073 -0.2129 -0.3215 -0.1793 -0.2382 -0.4514
0.291 -0.3193 0.343 0.1209 -0.1891 0.2837 -0.1084 -0.3154
0.567 -0.04782 0.11694 -0.3728 -0.165 0.1659 -0.273 -0.06616
0.04816 0.4382 -0.2751 -0.2161 -0.1772 0.2764 0.339 0.03333
-0.3347 -0.3345 -0.3816 0.125 0.2705 0.09375 -0.4233 -0.188
-0.321 0.5166 0.1548 -0.1453 0.4885 0.1123 0.0655 -0.03525
-0.04587 -0.07416 -0.3904 0.5063 0.1017 0.02449 -0.311 -0.1962
0.293 -0.3298 0.08417 -0.262 0.07227 -0.3423 0.2812 0.1102
0.004738 0.1226 0.1887 -0.1283 0.2289 0.4707 -0.117 0.1123
0.2554 0.1979 -0.3826 -0.2917 -0.4055 -0.3584 0.1814 -0.1815
