tflite_model.tflite (tflite, 19472 bytes, 8 tensors)

sequential_1/dense_5/MatMul;StatefulPartitionedCall/StatefulPartitionedCall/sequential_1/dense_5/MatMul;sequential_1/dense_5/Relu;StatefulPartitionedCall/StatefulPartitionedCall/sequential_1/dense_5/Relu;sequential_1/dense_5/BiasAdd;StatefulPartitionedCall/StatefulPartitionedCall/sequential_1/dense_5/BiasAdd f4 [32]
-0.74480337 0.007514865 -0.7471126 1.0787053 0.33679503 1.0892837 -0.77297443 0.089841425
-0.55100477 -0.21242431 0.458702 -1.7390072 1.2687747 -0.001923972 1.794797 -0.3474355
-0.38568336 -0.99611557 -0.52450126 -0.22848266 -0.4167487 -0.85611326 0.49150178 -0.48351145
-1.0378069 0.94692445 0.13882935 0.5186215 0.0018315264 -0.0043524727 -1.085487 0.83894765
00000000: 6fab 3ebf 423f f63b c542 3fbf 0413 8a3f
00000010: 6670 ac3e a66d 8b3f a7e1 45bf c8fe b73d
00000020: a60e 0dbf c285 59be fdda ea3e ca97 debf
00000030: 3667 a23f ca2d fcba e8bb e53f 11e3 b1be
00000040: 4a78 c5be 6e01 7fbf b745 06bf 5cf7 69be
00000050: 1660 d5be 3d2a 5bbf 1fa6 fb3e d08e f7be
00000060: dbd6 84bf a469 723f 4829 0e3e 61c4 043f
00000070: d40f f03a 309f 8ebb 3df1 8abf 46c5 563f

sequential_1/batch_normalization_3/batchnorm/mul_1;StatefulPartitionedCall/StatefulPartitionedCall/sequential_1/batch_normalization_3/batchnorm/mul_1;sequential_1/batch_normalization_3/batchnorm/add_1;StatefulPartitionedCall/StatefulPartitionedCall/sequential_1/batch_normalization_3/batchnorm/add_1;sequential_1/dense_5/MatMul;StatefulPartitionedCall/StatefulPartitionedCall/sequential_1/dense_5/MatMul;sequential_1/dense_5/Relu;StatefulPartitionedCall/StatefulPartitionedCall/sequential_1/dense_5/Relu;sequential_1/dense_5/BiasAdd;StatefulPartitionedCall/StatefulPartitionedCall/sequential_1/dense_5/BiasAdd f4 [32, 64]
0.023061663 0.25017425 0.2685547 0.22837792 0.32817245 -0.20484054 -0.46749172 -0.094078064
-0.1918867 -0.45218793 -0.05170624 -0.2287993 -0.22319283 -0.52633363 0.21667871 0.29614
-0.06754915 -0.13034694 0.27408788 0.14592136 -0.22738089 0.48493123 0.022820292 0.13862424
0.30989644 -0.135278 0.12130375 0.15668173 -0.16088969 -0.07730854 0.22043416 -0.2533603
0.077487744 -0.18917944 -0.13614109 0.07656025 -0.003932374 0.2405746 0.54235965 0.2444917
0.12690574 0.29203743 -0.38388973 -0.25823715 -0.015381496 -0.28308222 -0.23944764 0.18929917
0.17077075 -0.08803766 -0.24116276 0.25519088 -0.1763084 0.10112551 0.12182735 0.5448277
0.44565418 0.35154223 -0.0786696 -0.08963007 0.38544166 0.5065232 0.25270423 0.15916125
0.12835635 -0.3712815 0.26868683 -0.15504006 0.09169205 0.010211522 0.30742764 0.01158836
-0.1842576 0.3422069 -0.22188474 -0.10572066 -0.084607005 -0.49621573 -0.18398905 0.031495385
0.06385724 -0.20425674 0.100565284 -0.051195577 -0.09656645 -0.37344798 -0.30453688 -0.016269919
0.44889098 0.0630144 -0.17015666 0.4499079 -0.04805759 -0.09617947 0.06279483 -0.022700395
-0.18662031 -0.13278908 0.20703296 0.035627723 0.16487013 -0.092527494 0.097430736 -0.14549746
-0.47714016 -0.056530476 0.014116759 -0.17508171 0.7360005 0.28960115 0.51194113 -0.23786677
0.13868722 0.31144342 -0.0851176 -0.20669249 -0.11699555 -0.046658006 -0.1932569 -0.04479099
0.45560572 0.071924195 0.18254335 -0.19203742 -0.21377037 0.40835762 0.2467294 -0.35669672
-0.16530581 -0.2917749 -0.00062359666 0.03362987 0.2512912 -0.03753521 -0.23551539 -0.049531803
0.22696844 -0.29236788 0.19289859 0.16413957 -0.1275507 -0.7189686 -0.17108157 -0.21293862
0.021935698 -0.013425842 0.09516166 0.23613906 0.12996282 0.4711434 -0.15576178 -0.09427714
0.7009098 0.5438587 0.2561414 -0.3075141 0.14426816 0.37707245 0.18653019 -0.24633054
0.4913756 0.29800308 -0.12672424 0.19884345 -0.09163414 0.24023522 -0.33000505 0.24399419
0.03259799 -0.0547294 -0.038891036 -0.19440651 -0.06349317 -0.022504238 0.30301932 0.005644557
0.26412854 -0.17026152 0.08231872 -0.18207742 -0.32533213 0.042473767 0.08890504 0.24407822
-0.29873002 0.2543263 0.23183878 -0.17760053 -0.03836203 0.08106944 -0.56710213 -0.20611233
-0.2660228 -0.14404759 -0.06474074 0.032767843 -0.16781253 0.104995705 0.20328236 0.18651144
0.0048733987 -0.18471996 -0.16000582 0.054921918 -0.31068316 0.06645225 -0.17925526 -0.2612738
0.3101366 0.20502718 -0.05963381 -0.1208668 0.08699054 -0.34574482 0.30814582 -0.05215479
0.097690195 -0.18970391 0.031891216 -0.40587255 -0.2371919 -0.26156178 -0.09431934 0.0803906
-0.035113547 -0.01818723 -0.19803868 -0.020895187 -0.083163984 0.20622654 0.44174135 -0.030959586
-0.2860191 -0.35908133 0.025678106 -0.23651776 -0.43377927 -0.07078701 -0.033601645 -0.29715773
-0.27737442 -0.013692703 0.030387327 0.031729657 -0.16905582 0.047164027 -0.1675201 -0.21051462
-0.043595687 0.45578724 0.27617726 0.12945776 0.28601748 -0.7363891 -0.27068332 0.06244535
00000000: d0eb bc3c d716 803e 0080 893e e7db 693e
00000010: 3806 a83e b8c1 51be 135b efbe 00ac c0bd
00000020: f27d 44be 2d85 e7be ecc9 53bd 5d4a 6abe
00000030: a98c 64be cdbd 06bf 06e1 5d3e a99f 973e
00000040: 3557 8abd ab79 05be 3f55 8c3e 696c 153e
00000050: 89d6 68be e848 f83e 9ff1 ba3c 83f3 0d3e
00000060: bfaa 9e3e 5186 0abe 1a6e f83d 2d71 203e
00000070: 44c0 24be f153 9ebd 7eb9 613e 71b8 81be
00000080: e5b1 9e3d 41b8 41be 9268 0bbe 9fcb 9c3d
00000090: 25db 80bb 3059 763e 15d8 0a3f 085c 7a3e
000000a0: 94f3 013e ee85 953e 328d c4be a937 84be
000000b0: ac02 7cbc 27f0 90be c331 75be a4d7 413e
000000c0: 87de 2e3e 174d b4bd 5ff3 76be 61a8 823e
000000d0: 308a 34be e41a cf3d 9e80 f93d d479 0b3f
000000e0: c92c e43e 58fd b33e 871d a1bd f88f b7bd
000000f0: 9c58 c53e 81ab 013f 7362 813e 2bfb 223e
00000100: d96f 033e 9c18 bebe 5291 893e d2c2 1ebe
00000110: 0bc9 bb3d 3a4e 273c 2867 9d3e 1bdd 3d3c
00000120: 06ae 3cbe be35 af3e c135 63be 1384 d8bd
00000130: 7046 adbd fd0f febe a067 3cbe 4e01 013d
00000140: 96c7 823d ae28 51be 2cf5 cd3d 74b2 51bd
00000150: a2c4 c5bd 9334 bfbe 42ec 9bbe 7e48 85bc
00000160: 0ad5 e53e b20d 813d 8c3d 2ebe 545a e63e
00000170: 09d8 44bd bef9 c4bd 939a 803d 2ef6 b9bc
00000180: 6519 3fbe dcf9 07be 7300 543e 60ee 113d
00000190: b7d3 283e 0e7f bdbd c489 c73d 49fd 14be
000001a0: b74b f4be 808c 67bd fb49 673c 9f48 33be
000001b0: 876a 3c3f 9a46 943e 930e 033f 5993 73be
000001c0: 0604 0e3e 8375 9f3e 2352 aebd 32a7 53be
000001d0: 5d9b efbd 771c 3fbd 23e5 45be c276 37bd
000001e0: 2745 e93e fe4c 933d a5ec 3a3e 75a5 44be
000001f0: 9fe6 5abe 4014 d13e a2a6 7c3e f4a0 b6be
00000200: ed45 29be 8563 95be dd78 23ba 79bf 093d
00000210: 3da9 803e 85be 19bd f22a 71be dce1 4abd
00000220: 6a6a 683e 3eb1 95be 3587 453e 3414 283e
00000230: a79c 02be 530e 38bf 0230 2fbe 950c 5abe
00000240: 7eb2 b33c 10f8 5bbc 1ee4 c23d 70ce 713e
00000250: f914 053e b539 f13e 0480 1fbe 6014 c1bd
00000260: d36e 333f 533a 0b3f f724 833e 7d72 9dbe
00000270: 08bb 133e a40f c13e c501 3f3e 133e 7cbe
00000280: 9595 fb3e dc93 983e 00c4 01be 9e9d 4b3e
00000290: aeaa bbbd 3900 763e 6cf6 a8be 9dd9 793e
000002a0: 7885 053d ef2b 60bd 354c 1fbd 8012 47be
000002b0: b508 82bd cf5a b8bc 5925 9b3e faf5 b83b
000002c0: db3b 873e 0959 2ebe b896 a83d 8172 3abe
000002d0: ef91 a6be f9f8 2d3d d813 b63d a4ef 793e
000002e0: 24f3 98be 0f37 823e 2567 6d3e eadc 35be
000002f0: 8121 1dbd bc07 a63d 9b2d 11bf 1c0f 53be
00000300: 2434 88be 3681 13be cb96 84bd 9337 063d
00000310: 0cd7 2bbe fd07 d73d 4029 503e dbfc 3e3e
00000320: 08b1 9f3b 3b27 3dbe 91d8 23be cef5 603d
00000330: dd11 9fbe 1e18 883d b18e 37be aec5 85be
00000340: 39ca 9e3e a5f2 513e 9542 74bd 0389 f7bd
00000350: 1928 b23d 7705 b1be 4ac5 9d3e 43a0 55bd
00000360: cc11 c83d be41 42be 5da0 023d 87ce cfbe
00000370: 6fe2 72be 6deb 85be 802a c1bd d4a3 a43d
00000380: 39d3 0fbd 63fd 94bc a7ca 4abe 622c abbc
00000390: e151 aabd 0d2d 533e ec2b e23e f59e fdbc
000003a0: 1871 92be 82d9 b7be e45a d23c b631 72be
000003b0: 5118 debe c8f8 90bd e1a1 09bd 0f25 98be
000003c0: 0504 8ebe 5c57 60bc d8ee f83c f5f6 013d
000003d0: f81c 2dbe 112f 413d 648a 2bbe 2591 57be
000003e0: 6491 32bd f25c e93e 1b67 8d3e 9390 043e
000003f0: e270 923e ff83 3cbf 0197 8abe b2c6 7f3d

sequential_1/dense_6/MatMul;StatefulPartitionedCall/StatefulPartitionedCall/sequential_1/dense_6/MatMul;sequential_1/dense_6/Relu;StatefulPartitionedCall/StatefulPartitionedCall/sequential_1/dense_6/Relu;sequential_1/dense_6/BiasAdd;StatefulPartitionedCall/StatefulPartitionedCall/sequential_1/dense_6/BiasAdd f4 [16]
1.0560794 0.39228195 -1.0057774 0.6044071 -0.075145535 -0.0071615446 0.04470758 0.6366144
-1.4278594 0.7678107 -0.6103303 -0.6525444 -0.09480016 0.8260675 -0.66038126 0.57632643
00000000: 9c2d 873f 2ed9 c83e 50bd 80bf 6cba 1a3f
00000010: e7e5 99bd 64ab eabb 4c1f 373d 29f9 223f
00000020: 19c4 b6bf 3e8f 443f 9b3e 1cbf 260d 27bf
00000030: 9626 c2bd 2979 533f bf0e 29bf 218a 133f

sequential_1/batch_normalization_4/batchnorm/mul_1;StatefulPartitionedCall/StatefulPartitionedCall/sequential_1/batch_normalization_4/batchnorm/mul_1;sequential_1/batch_normalization_4/batchnorm/add_1;StatefulPartitionedCall/StatefulPartitionedCall/sequential_1/batch_normalization_4/batchnorm/add_1;sequential_1/dense_6/MatMul;StatefulPartitionedCall/StatefulPartitionedCall/sequential_1/dense_6/MatMul;sequential_1/dense_6/Relu;StatefulPartitionedCall/StatefulPartitionedCall/sequential_1/dense_6/Relu;sequential_1/dense_6/BiasAdd;StatefulPartitionedCall/StatefulPartitionedCall/sequential_1/dense_6/BiasAdd f4 [16, 32]
-0.046499074 0.28589344 0.12268111 -0.28784844 0.05842767 -0.13569535 -0.086091146 0.0010507549
-0.39421013 -0.33857962 -0.088979036 -0.08728355 0.04953257 -0.28743148 0.15577002 -0.3201525
-0.31639162 -0.189786 -0.33272123 -0.17958468 -0.40316203 0.18878448 0.06970199 -0.22954233
0.06818421 0.17628929 0.09109245 0.31342703 0.0058566863 -0.3140732 0.34485668 -0.4896528
0.29644606 -0.24218959 -0.2907746 -0.065301985 -0.34491163 -0.43658218 -0.40234995 0.14756179
-0.1711622 -0.2185084 0.05234441 -0.14037779 -0.38616988 0.01387703 -0.004180717 0.047706425
-0.021749994 -0.047007024 -0.06567972 -0.012456934 0.10057716 -0.076487705 -0.115355894 0.27938393
0.3768453 0.13703792 0.031364836 -0.42576262 0.120150544 0.44856715 0.6095171 0.19440326
0.23049407 0.05102919 -0.22332482 -0.021332383 -0.11597049 0.016056234 0.3643381 0.12942539
0.22883931 0.33150437 0.34526157 -0.039151736 0.67967683 0.29418325 -0.30028164 0.35466284
-0.056644592 0.235334 -0.07630542 -0.089596935 -0.36171487 0.13090457 0.18205236 -0.3455599
-0.04936895 -0.15092534 0.19959937 0.31840727 0.25831607 0.27055982 -0.13178857 0.24633487
-0.28405863 0.5724385 -0.07234132 -0.1377273 0.05429319 -0.17407735 0.4275601 0.3311578
0.15711705 -0.07385616 -0.44804466 -0.40270773 -0.5190873 0.28480008 0.27081227 0.080320545
-0.28546846 -0.061331533 0.16144589 0.10484535 -0.44664448 -0.3405217 -0.30103323 -0.07011364
0.32650644 -0.049493812 0.11590735 -0.085869595 -0.52137667 0.050149973 0.447352 -0.10794048
-0.2558604 0.07880461 0.36002472 -0.49429432 -0.29992804 0.10338089 0.0554963 -0.14148004
0.14224423 0.023353137 0.17218913 -0.16446257 0.5121645 -0.21834919 0.5325923 -0.06369644
0.09083498 0.017777912 -0.2434413 0.14029136 -0.1336093 -0.049486235 -0.2864231 0.06688679
0.32431164 0.27619314 0.45237327 0.6015105 0.20565431 -0.66574967 0.18823563 -0.56079286
0.048744924 0.07490765 0.52299243 -0.58217734 -0.13727109 -0.08684014 -0.55647206 0.45752013
-0.09281402 -0.21000543 0.3022191 0.05929283 -0.51722306 -0.33846205 0.12851778 0.14566284
-0.1783815 -0.32318085 0.19010788 -0.29701388 0.14161342 -0.379553 0.5784974 0.33215362
0.40904713 -0.35162124 0.27576616 0.17057727 -0.38165712 -0.12976539 0.36892202 -0.114958085
-0.013420427 -0.30028096 -0.16775905 0.14068007 0.25336382 0.31057292 -0.36430937 0.3970319
-0.0822666 -0.3196664 -0.32669488 0.68038386 0.08714159 -0.3148859 0.49994883 -0.1972522
-0.16240886 0.071580485 -0.45540687 0.013039175 -0.19819501 0.10010083 0.18909465 0.070352174
-0.24365753 -0.38589767 0.57940316 -0.065655544 -0.28864002 0.06651425 -0.51181364 0.6123158
-0.30788225 -0.12157292 0.18160753 0.025599234 -0.18466462 -0.07048949 0.03382295 -0.19471659
-0.019520514 -0.0764742 -0.039498232 0.010552175 -0.36259806 -0.0922983 0.0033618459 0.23887917
0.023742463 -0.016071903 0.06634916 -0.07837988 -0.3109342 0.07166232 0.4194325 -0.20669873
-0.14782834 -0.082775295 -0.0892024 -0.079379864 0.09428287 -0.3280521 -0.26766974 -0.15347427
00000000: d075 3ebd a060 923e 3c40 fb3d df60 93be
00000010: da51 6f3d b9f3 0abe 8e50 b0bd 7cb9 893a
00000020: e9d5 c9be 4f5a adbe a43a b6bd b8c1 b2bd
00000030: aae2 4a3d 382a 93be 2d82 1f3e 07eb a3be
00000040: 15fe a1be 4357 42be 705a aabe 0ce5 37be
00000050: 416b cebe b850 413e ebbf 8e3d 250d 6bbe
00000060: 2aa4 8b3d 2e85 343e ae8e ba3d 8279 a03e
00000070: 72e9 bf3b 34ce a0be 0e91 b03e c6b3 fabe
00000080: c7c7 973e 8c00 78be 69e0 94be 0cbd 85bd
00000090: 4298 b0be b387 dfbe d000 cebe 701a 173e
000000a0: 2545 2fbe aac0 5fbe 1867 563d 32bf 0fbe
000000b0: 0fb8 c5be 7c5c 633c 65fe 88bb d067 433d
000000c0: 0b2d b2bc 708a 40bd 1783 86bd 2b18 4cbc
000000d0: 66fb cd3d 96a5 9cbd b63f ecbd 690b 8f3e
000000e0: def1 c03e ab53 0c3e 6a78 003d 8ffd d9be
000000f0: 7d11 f63d 98aa e53e 5009 1c3f a611 473e
00000100: a306 6c3e fc03 513d 43af 64be 40c1 aebc
00000110: f081 edbd 5d88 833c 868a ba3e 1788 043e
00000120: da54 6a3e f1ba a93e 20c6 b03e 925d 20bd
00000130: 4dff 2d3f 309f 963e 84be 99be 5e96 b53e
00000140: 2904 68bd 65fb 703e 0446 9cbd 997e b7bd
00000150: b132 b9be d90b 063e ef6b 3a3e 3aed b0be
00000160: 1937 4abd 2c8c 1abe c763 4c3e 4706 a33e
00000170: 0142 843e d186 8a3e 95f3 06be 353f 7c3e
00000180: 2270 91be 548b 123f b027 94bd 6308 0dbe
00000190: 8962 5e3d 5541 32be 28e9 da3e 848d a93e
000001a0: 4be3 203e e641 97bd 1c66 e5be b52f cebe
000001b0: e8e2 04bf 51d1 913e e8a7 8a3e 197f a43d
000001c0: ec28 92be c636 7bbd 1252 253e 29b9 d63d
000001d0: 96ae e4be dc58 aebe 0721 9abe bd97 8fbd
000001e0: da2b a73e 06ba 4abd d560 ed3d 66dc afbd
000001f0: f178 05bf 0f6a 4d3d 520b e53e e60f ddbd
00000200: 2200 83be 5064 a13d 2955 b83e 2514 fdbe
00000210: 2b90 99be 5cb9 d33d 1750 633d 25e0 10be
00000220: 79a8 113e 144f bf3c 5952 303e e068 28be
00000230: 361d 033f ee96 5fbe f857 083f 4773 82bd
00000240: b107 ba3d fca2 913c ad48 79be 8aa8 0f3e
00000250: e0d0 08be 14b2 4abd 0ca6 92be f1fb 883d
00000260: 2d0c a63e 3069 8d3e 789d e73e 98fc 193f
00000270: 0b97 523e 926e 2abf d7c0 403e 1f90 0fbf
00000280: c2a8 473d 2f69 993d d5e2 053f 9309 15bf
00000290: cb90 0cbe 3ed9 b1bd f474 0ebf 1440 ea3e
000002a0: 4715 bebd aa0b 57be 76bc 9a3e 0add 723d
000002b0: bb68 04bf e64a adbe 2a9a 033e a428 153e
000002c0: a4a9 36be f677 a5be a4ab 423e 3412 98be
000002d0: 1c03 113e c554 c2be 6818 143f 0a10 aa3e
000002e0: a06e d13e b307 b4be 3931 8d3e cfab 2e3e
000002f0: 9068 c3be 38e1 04be 59e3 bc3e 256f ebbd
00000300: 5ae1 5bbc 6dbe 99be 07c9 2bbe 700e 103e
00000310: e7b8 813e 6a03 9f3e c286 babe c447 cb3e
00000320: 647b a8bd 50ab a3be 8d44 a7be a32d 2e3f
00000330: 4a77 b23d ba38 a1be 4bf9 ff3e 7bfc 49be
00000340: 824e 26be ca98 923d 172b e9be 44a2 553c
00000350: a2f3 4abe aa01 cd3d 07a2 413e cd14 903d
00000360: 5c81 79be 6194 c5be c453 143f 6a76 86bd
00000370: a0c8 93be a038 883d 3806 03bf bac0 1c3f
00000380: bea2 9dbe 39fb f8bd 53f7 393e 7cb5 d13c
00000390: b918 3dbe cb5c 90bd ef89 0a3d c963 47be
000003a0: 7ce9 9fbc 819e 9cbd e6c8 21bd 08e3 2c3c
000003b0: 74a6 b9be e406 bdbd 6a52 5c3b be9c 743e
000003c0: 8e7f c23c 39a9 83bc 12e2 873d a185 a0bd
000003d0: c432 9fbe b2c3 923d dbbf d63e d5a8 53be
000003e0: 5060 17be 1886 a9bd bfaf b6bd e991 a2bd
000003f0: 6117 c13d 72f6 a7be 020c 89be 5c28 1dbe

sequential_1/dense_7/MatMul;StatefulPartitionedCall/StatefulPartitionedCall/sequential_1/dense_7/MatMul;sequential_1/dense_7/BiasAdd;StatefulPartitionedCall/StatefulPartitionedCall/sequential_1/dense_7/BiasAdd f4 [3]
0.10777653 -0.6312878 0.32277367
00000000: f1b9 dc3d 149c 21bf 9742 a53e

sequential_1/batch_normalization_5/batchnorm/mul_1;StatefulPartitionedCall/StatefulPartitionedCall/sequential_1/batch_normalization_5/batchnorm/mul_1;sequential_1/batch_normalization_5/batchnorm/add_1;StatefulPartitionedCall/StatefulPartitionedCall/sequential_1/batch_normalization_5/batchnorm/add_1;sequential_1/dense_7/MatMul;StatefulPartitionedCall/StatefulPartitionedCall/sequential_1/dense_7/MatMul;sequential_1/dense_7/BiasAdd;StatefulPartitionedCall/StatefulPartitionedCall/sequential_1/dense_7/BiasAdd f4 [3, 16]
-0.3256345 0.16760169 -0.3103065 0.7918259 -0.16918728 -0.009173607 -0.5456914 -0.5832575
0.39839888 -0.17004739 0.4147411 0.52318054 -0.61661065 0.116444014 -0.3965642 -0.018288327
0.35701427 -0.2182839 0.3542088 0.4499485 -0.06699387 0.40333816 0.075389214 -0.8657182
-0.28111964 0.28928643 0.15666589 0.15220575 0.026366822 -0.37865767 0.12092254 0.47000873
-0.509668 -0.24824874 0.38836187 0.23277804 -0.63230324 -0.46092907 0.20599723 -0.6414403
0.19043395 -0.20028178 0.8099611 -0.015759824 -0.003835316 0.2706736 -0.016890792 -0.07669704
00000000: 91b9 a6be c79f 2b3e 7ee0 9ebe 1ab5 4a3f
00000010: 6e3f 2dbe e64c 16bc 6eb2 0bbf 5d50 15bf
00000020: f0fa cb3e e720 2ebe f258 d43e 29ef 053f
00000030: 32da 1dbf 337a ee3d 760a cbbe 67d1 95bc
00000040: 93ca b63e d185 5fbe db5a b53e a65f e63e
00000050: 1534 89bd 5782 ce3e a965 9a3d b59f 5dbf
00000060: eaee 8fbe 5a1d 943e 066d 203e d3db 1b3e
00000070: 3cff d73c 6bdf c1be 3da6 f73d fca4 f03e
00000080: 9a79 02bf eb34 7ebe 5ed7 c63e 5e5d 6e3e
00000090: a0de 21bf e5fe ebbe f0f0 523e 6e35 24bf
000000a0: 1e01 433e ab16 4dbe 9c59 4f3f bf1a 81bc
000000b0: ed59 7bbb bb95 8a3e 8f5e 8abc 5613 9dbd

dense_4/bias f4 [64]
0.011475003 -0.09593914 -0.039681386 0.078992374 0.065620765 -0.017751768 0.044811353 -0.044415202
-0.062095076 0.043997128 0.01413953 0.049467467 -0.06931921 -0.15302111 0.085508734 -0.0162631
0.013129365 -0.101994224 -0.11702653 0.044713687 -0.034621008 -0.037842516 -0.08637709 -0.0034464318
-0.090593986 -0.011898281 -0.15492262 -0.014882428 0.12586175 0.0031587377 -0.012190277 -0.038484395
0.0147734545 -0.047027696 -0.107833825 -0.09703842 0.007833608 0.004490861 -0.03373257 -0.12617306
0.027616153 -0.07637167 0.08029478 -0.031420194 -0.08442907 0.06290611 0.031191718 0.042151943
0.10924814 -0.0011423863 -0.038093325 -0.12052285 -0.09146161 0.014806122 -0.0067595863 -0.071045704
0.03056302 -0.08469419 -0.052300345 -0.04943847 -0.09696731 -0.019749401 -0.09602375 0.0481518
00000000: a701 3c3c bd7b c4bd f388 22bd c1c6 a13d
00000010: 2e64 863d 286c 91bc 1c8c 373d b7ec 35bd
00000020: 6857 7ebd 5536 343d 7da9 673c 669e 4a3d
00000030: 3bf7 8dbd 91b1 1cbe 341f af3d 313a 85bc
00000040: 8c1c 573c 59e2 d0bd 9bab efbd b325 373d
00000050: c2ce 0dbd c100 1bbd 79e6 b0bd 88dd 61bb
00000060: 5789 b9bd 02f1 42bc 09a4 1ebe 6dd5 73bc
00000070: e7e1 003e d302 4f3b bab9 47bc d0a1 1dbd
00000080: 5c0c 723c 1da0 40bd fbd7 dcbd 14bc c6bd
00000090: 8958 003c 1328 933b 2a2b 0abd 8333 01be
000000a0: 453b e23c c068 9cbd 9771 a43d 76b2 00bd
000000b0: 26e9 acbd ebd4 803d c685 ff3c 84a7 2c3d
000000c0: 7dbd df3d 20bc 95ba bf07 1cbd afd4 f6bd
000000d0: 3950 bbbd 6095 723c 857f ddbb 6980 91bd
000000e0: 4c5f fa3c 2674 adbd e338 56bd fe7f 4abd
000000f0: cc96 c6bd 7fc9 a1bc 1aa8 c4bd d23a 453d

sequential_1/dense_4/MatMul;StatefulPartitionedCall/StatefulPartitionedCall/sequential_1/dense_4/MatMul f4 [64, 8]
-0.504404 0.20112707 0.10306577 -0.118882045 -0.08783857 0.33364007 -0.20470822 -0.1657036
0.41085732 0.13099197 -0.38185447 -0.03406156 0.3851841 -0.051037807 0.032496784 -0.105765045
-0.4083909 -0.3505953 -0.13571928 0.031395227 -0.1836798 -0.15478987 0.32463884 -0.054560795
0.2982292 -0.005910627 -0.08265252 0.3941779 -0.21082595 -0.14126597 0.012275053 -0.20074658
0.4148761 -0.3440536 0.2641446 -0.37207392 0.3345825 0.048827983 -0.18102197 0.5912425
-0.13728258 -0.29105616 0.08391387 -0.36013725 0.2879071 -0.08434701 -0.40051097 0.512135
-0.5031999 0.13885397 -0.29179952 0.020332616 -0.05312715 0.08152266 0.30290827 0.07740513
0.48255035 -0.47777936 0.17324407 0.5124334 0.173566 0.37495068 -0.45714173 -0.08347478
0.5304094 -0.2338722 -0.07398493 -0.26881582 -0.39837167 -0.06179362 0.13228099 -0.46095723
0.39552623 0.3376684 -0.20769261 -0.11151614 0.06918658 -0.18114011 -0.2520779 -0.13579156
-0.46944934 -0.3635633 -0.20659049 -0.20886147 0.17083378 -0.091763 -0.055148523 -0.119303375
0.15195128 -0.1826699 -0.31007347 0.3837033 -0.026717966 -0.25103065 0.10526574 0.16218928
-0.042013515 0.029904021 -0.117408715 -0.39118522 -0.08920869 -0.36253875 -0.2407428 0.30063462
0.0019767156 -0.08916509 -0.39905128 -0.07122852 -0.13634822 0.53813875 0.012303829 -0.28432208
-0.34056184 0.16563036 0.322578 0.27286288 0.51407886 -0.072768375 0.012054421 0.31712294
-0.33981648 0.39101863 0.28236923 -0.23561321 -0.5100504 -0.11964624 -0.12699918 0.29597634
-0.030526634 -0.18985401 0.2959631 -0.48304984 0.23917672 -0.12161763 0.04933182 -0.025192931
-0.027973324 -0.0772397 0.011479391 0.16029663 0.2556518 0.21477473 0.14556737 0.26917163
0.34492093 -0.47204718 -0.09525047 0.090140626 0.36166668 -0.16155057 0.46757984 0.18282588
-0.45129707 0.3573387 -0.14819194 0.059086252 -0.063704126 0.4056677 0.28847915 -0.3986735
-0.09286338 0.38673788 -0.55206287 0.031241283 0.3120236 -0.08512776 -0.28651965 -0.35103405
-0.07882576 0.34382284 0.29445532 -0.29086888 -0.23230612 -0.3289029 -0.5005407 -0.08729124
-0.073098816 -0.43062517 0.09641453 0.36552805 -0.15471533 0.4087301 0.24358216 -0.35012448
-0.16661368 -0.032923043 -0.14062798 0.0064748195 0.41643727 -0.15236552 -0.058391392 -0.17091133
0.24318458 0.05189243 -0.6481102 0.36882448 -0.24944326 -0.05782759 -0.48127568 0.48843744
0.16343397 -0.37502417 -0.0636077 -0.29014727 -0.07239719 0.53342235 -0.33059108 -0.21627854
-0.27652386 -0.4711619 0.16759223 -0.4428527 -0.06707202 -0.40423593 -0.23024149 -0.13260092
0.0126923 0.113331676 -0.014730606 -0.18937606 0.10373318 -0.4767475 -0.22761597 0.22607517
0.46407053 0.052102886 0.13843077 -0.42454803 -0.040535312 -0.16156502 -0.38029647 0.2376126
0.4501585 -0.31052908 0.27041516 0.50567895 0.25917822 -0.31473276 -0.05334169 0.1320996
0.25069824 -0.1825918 -0.15700717 -0.13767676 -0.43332335 -0.2973044 0.15904209 -0.14333273
0.1732469 -0.1923066 -0.13869981 -0.1429128 0.25120622 -0.08561506 -0.5362974 0.30733058
00000000: 9f20 01bf 41f4 4d3e 2514 d33d 6e78 f3bd
00000010: b5e4 b3bd dfd2 aa3e 089f 51be 34ae 29be
00000020: e45b d23e c222 063e 6e82 c3be 2284 0bbd
00000030: da36 c53e 050d 51bd 591b 053d 589b d8bd
00000040: 9d18 d1be 3a81 b3be fff9 0abe 4898 003d
00000050: 8f16 3cbe 3c81 1ebe 1037 a63e 247b 5fbd
00000060: 7fb1 983e efad c1bb b945 a9bd b0d1 c93e
00000070: c2e2 57be 07a8 10be 4e1d 493c 8390 4dbe
00000080: a46a d43e cb27 b0be f63d 873e 7980 bebe
00000090: 664e ab3e daff 473d d35d 39be ab5b 173f
000000a0: ce93 0cbe 5005 95be 09db ab3d e963 b8be
000000b0: 8f68 933e 20be acbd c60f cdbe 481b 033f
000000c0: b5d1 00bf bc2f 0e3e bf66 95be 9690 a63c
000000d0: db9b 59bd 5af5 a63d cb16 9b3e 9586 9e3d
000000e0: d710 f73e 7f9f f4be e566 313e d62e 033f
000000f0: 49bb 313e 89f9 bf3e 7b0e eabe d3f4 aabd
00000100: e9c8 073f 327c 6fbe 6985 97bd 3aa2 89be
00000110: 5ff7 cbbe 4f1b 7dbd ab74 073e 9602 ecbe
00000120: 6a82 ca3e dfe2 ac3e 5fad 54be 9362 e4bd
00000130: b2b1 8d3d cb7c 39be 5b10 81be f10c 0bbe
00000140: aa5b f0be f824 babe 758c 53be c8df 55be
00000150: 0def 2e3e 3dee bbbd 6be3 61bd 5455 f4bd
00000160: 1e99 1b3e d10d 3bbe f3c1 9ebe c274 c43e
00000170: a3df dabc 1787 80be 9095 d73d f214 263e
00000180: 5d16 2cbd 47f9 f43c fb73 f0bd 6e49 c8be
00000190: 0cb3 b6bd ae9e b9be 4885 76be c8ec 993e
000001a0: c98b 013b 309c b6bd 7350 ccbe 42e0 91bd
000001b0: de9e 0bbe 76c3 093f 0096 493c aa92 91be
000001c0: 1f5e aebe 019b 293e f228 a53e afb4 8b3e
000001d0: ac9a 033f 9607 95bd e87f 453c f05d a23e
000001e0: 6dfc adbe 9833 c83e b392 903e 9744 71be
000001f0: aa92 02bf 1609 f5bd 130c 02be 368a 973e
00000200: fe12 fabc 1769 42be 7a88 973e 4f52 f7be
00000210: beea 743e aa12 f9bd 2a10 4a3d 6861 cebc
00000220: 5028 e5bc d92f 9ebd 0e14 3c3c cd24 243e
00000230: cbe4 823e e8ed 5b3e 9d0f 153e ddd0 893e
00000240: 7a99 b03e 2bb0 f1be ae12 c3bd a69b b83d
00000250: 602c b93e 836d 25be a066 ef3e b536 3b3e
00000260: 6910 e7be 19f5 b63e a1bf 17be 6d04 723d
00000270: 4f77 82bd adb3 cf3e 8ab3 933e ef1e ccbe
00000280: 282f bebd 8202 c63e fe53 0dbf b8ed ff3c
00000290: 8fc1 9f3e 7757 aebd b4b2 92be bcba b3be
000002a0: 666f a1bd 8c09 b03e d9c2 963e c4ec 94be
000002b0: a8e1 6dbe f665 a8be 6f23 00bf c0c5 b2bd
000002c0: d5b4 95bd e77a dcbe fb74 c53d 7e26 bb3e
000002d0: b26d 1ebe 1245 d13e 9a6d 793e 8443 b3be
000002e0: c79c 2abe 50da 06bd c800 10be b92a d43b
000002f0: 4437 d53e b505 1cbe d02b 6fbd 6103 2fbe
00000300: 6105 793e 288d 543d 8dea 25bf 90d6 bc3e
00000310: 0e6e 7fbe 9fdc 6cbd c469 f6be 7914 fa3e
00000320: 3c5b 273e 2b03 c0be c144 82bd 2f8e 94be
00000330: fa44 94bd 5e8e 083f 3c43 a9be 1f78 5dbe
00000340: 8994 8dbe 223c f1be 4c9d 2b3e 97bd e2be
00000350: 0e5d 89bd 03f8 cebe 6dc4 6bbe 89c8 07be
00000360: 5df3 4f3c 701a e83d a458 71bc cceb 41be
00000370: 1072 d43d 4018 f4be 2914 69be 4080 673e
00000380: a79a ed3e d669 553d ccc0 0d3e 5c5e d9be
00000390: 5b08 26bd 4d71 25be 38b6 c2be b850 733e
000003a0: 2d7b e63e abfd 9ebe db73 8a3e 2d74 013f
000003b0: 02b3 843e a724 a1be d17c 5abd 1e45 073e
000003c0: 855b 803e 58f9 3abe 7dc6 20be 23fb 0cbe
000003d0: 8fdc ddbe 4838 98be eedb 223e d1c5 12be
000003e0: a367 313e 05ec 44be 5307 0ebe bc57 12be
000003f0: 1a9e 803e f356 afbd c94a 09bf 6f5a 9d3e
